optima/checkpoints/mnli/mcb.pt (torch, 419359 bytes, 3 tensors)

unshared_soft_embeds f4 [100, 1024]
-10.20631 -4.220185 -31.896152 -16.304228 -13.325371 46.0969 -2.1119468 12.170251
-3.8763885 -11.78256 20.175104 15.606637 -7.0501122 -10.54423 -20.812162 10.148907
26.386274 -38.98998 -19.031523 24.510138 1.9187315 -5.843214 -1.9008924 20.20382
32.025696 30.182802 16.638676 14.664314 -11.937334 -19.996433 -9.29265 21.476755
9.924229 16.077513 -40.144016 -26.34863 51.63894 24.348036 -6.4412274 -18.791796
-21.39788 18.76038 -22.253841 -4.828966 -30.90855 -19.482397 -39.038967 -62.296844
4.172879 3.821133 13.438744 19.748293 2.1423662 -7.8965955 19.246252 -22.827614
7.0327168 30.180166 16.015495 6.2184496 -24.633121 -8.079561 -4.247405 -14.369912
5.2587123 -28.999235 22.190327 11.449501 -14.184538 28.877657 -4.2763276 15.4204
4.6065516 -25.064949 19.40865 14.178606 -11.614856 -8.1223 -11.558407 -3.366912
-39.11939 -33.949837 -21.206087 -30.498844 9.725185 6.707155 3.3774912 -25.009645
5.5630183 -33.68551 -12.286626 18.108519 14.967937 -18.097092 -0.34658325 2.6139483
-33.82642 35.306778 -21.236061 11.452215 1.3597307 -27.748384 4.8913307 -13.747465
4.402596 20.657036 -29.581373 30.256556 24.33944 18.72948 -29.611576 -6.5987544
27.631407 16.913355 -55.70887 17.527704 3.6566758 13.673646 33.17453 -5.0043745
19.599598 -11.979967 2.5291457 -22.45876 -30.695608 -10.190295 -51.490128 33.441196
-60.567383 22.508242 35.290375 0.50298876 -5.481969 7.5306387 -37.85158 1.6734278
27.227373 0.4330817 -7.9328704 34.63755 -7.995315 -25.740894 -1.8055178 18.990677
9.782568 -14.331116 -9.1397915 -35.126892 -29.082685 -16.727707 -10.716794 -10.9044075
27.080328 -0.181916 -36.382824 23.577356 -13.647545 18.960512 4.1209083 25.329576
-9.391234 8.003974 10.224676 2.6175694 28.799225 -4.5320163 42.19429 31.782202
22.565767 -6.010881 -1.8546807 37.75251 26.107794 10.711753 -16.3498 16.184147
-14.644903 29.184515 -1.7982781 26.091322 27.704721 42.467712 -3.7302585 -9.326892
16.832481 2.927982 -2.4557695 -17.930683 5.5750284 50.787823 4.08972 -6.559699
-10.227425 4.8706317 15.022102 6.943386 -9.621334 -31.476454 -14.153509 -33.06219
19.428093 1.6143144 21.331135 -31.423222 -0.8416447 15.592127 19.592869 -29.4744
12.596549 -32.502785 -30.882809 4.036915 -10.6855135 -10.24108 10.979108 -11.927569
-12.601783 -25.68746 16.867437 -15.500984 -19.580606 14.495411 -3.8011227 19.406672
37.196423 -13.378024 10.338885 -2.488122 -0.7385584 -1.1103257 22.49949 -3.5987556
7.5411434 12.954945 -20.06582 11.488293 9.314914 -12.372827 29.646955 31.23539
-28.046144 15.76173 -0.11503348 -31.368328 -5.28226 17.727327 -21.712078 -18.157295
2.4534266 5.174844 2.4638774 -19.612473 9.538915 5.0294566 39.129505 -20.71419
00000000: 0c4d 23c1 c10b 87c0 522b ffc1 0f6f 82c1
00000010: b834 55c1 3a63 3842 232a 07c0 59b9 4241
00000020: c016 78c0 5e85 3cc1 9d66 a141 c9b4 7941
00000030: 859a e1c0 2bb5 28c1 4f7f a6c1 ec61 2241
00000040: 1717 d341 bdf5 1bc2 8f40 98c1 c314 c441
00000050: fe98 f53f 9cfb bac0 7150 f3bf 6ca1 a141
00000060: 501a 0042 6176 f141 021c 8541 08a1 6a41
00000070: 52ff 3ec1 b2f8 9fc1 b2ae 14c1 65d0 ab41
00000080: a4c9 1e41 bf9e 8041 7993 20c2 ffc9 d2c1
00000090: 468e 4e42 c7c8 c241 891e cec0 9955 96c1
000000a0: dc2e abc1 4215 9641 de07 b2c1 e486 9ac0
000000b0: b644 f7c1 f3db 9bc1 e727 1cc2 f82f 79c2
000000c0: 3a88 8540 718d 7440 1805 5741 81fc 9d41
000000d0: 871c 0940 e9b0 fcc0 53f8 9941 f49e b6c1
000000e0: 040c e140 fb70 f141 bc1f 8041 8afd c640
000000f0: a210 c5c1 e245 01c1 beea 87c0 29eb 65c1
00000100: 5f47 a840 6ffe e7c1 ca85 b141 2831 3741
00000110: def3 62c1 7105 e741 add7 88c0 f5b9 7641
00000120: df68 9340 0485 c8c1 ea44 9b41 92db 6241
00000130: 73d6 39c1 f1f4 01c1 3cef 38c1 7c7b 57c0
00000140: 417a 1cc2 a2cc 07c2 11a6 a9c1 a2fd f3c1
00000150: 5c9a 1b41 04a1 d640 d128 5840 c113 c8c1
00000160: 3f04 b240 f6bd 06c2 0596 44c1 3fde 9041
00000170: ac7c 6f41 d8c6 90c1 5c73 b1be ee4a 2740
00000180: 414e 07c2 243a 0d42 74e3 a9c1 463c 3741
00000190: a80b ae3f b1fc ddc1 c885 9c40 9ef5 5bc1
000001a0: 11e2 8c40 9c41 a541 a7a6 ecc1 6d0d f241
000001b0: 2cb7 c241 fad5 9541 82e4 ecc1 ff28 d3c0
000001c0: 1f0d dd41 8d4e 8741 e2d5 5ec2 bd38 8c41
000001d0: fa06 6a40 41c7 5a41 b8b2 0442 d623 a0c0
000001e0: facb 9c41 f2ad 3fc1 86dd 2140 8aab b3c1
000001f0: 9b90 f5c1 730b 23c1 e4f5 4dc2 c9c3 0542
00000200: 0045 72c2 e110 b441 5829 0d42 dfc3 003f
00000210: 4a6c afc0 fefa f040 0568 17c2 e232 d63f
00000220: a9d1 d941 e2bc dd3e 13da fdc0 da8c 0a42
00000230: 9fd9 ffc0 5aed cdc1 351b e7bf e8ec 9741
00000240: 6685 1c41 404c 65c1 963c 12c1 f081 0cc2
00000250: 57a9 e8c1 58d2 85c1 fd77 2bc1 7478 2ec1
00000260: 83a4 d841 3048 3abe 0388 11c2 6d9e bc41
00000270: 585c 5ac1 21af 9741 7bde 8340 f9a2 ca41
00000280: 7f42 16c1 4710 0041 4698 2341 4286 2740
00000290: d064 e641 4706 91c0 f4c6 2842 f341 fe41
000002a0: b186 b441 2359 c0c0 2d66 edbf 9202 1742
000002b0: c3dc d041 5763 2b41 64cc 82c1 2279 8141
000002c0: 8651 6ac1 e379 e941 fa2d e6bf 07bb d041
000002d0: 45a3 dd41 f0de 2942 8ebc 6ec0 f33a 15c1
000002e0: eca8 8641 0f64 3b40 542b 1dc0 0a72 8fc1
000002f0: a266 b240 bb26 4b42 fcde 8240 0ee9 d1c0
00000300: 88a3 23c1 37dc 9b40 885a 7041 3830 de40
00000310: fcf0 19c1 c7cf fbc1 c674 62c1 af3f 04c2
00000320: bc6c 9b41 dba1 ce3f 2aa6 aa41 c262 fbc1
00000330: 0776 57bf 5a79 7941 32be 9c41 92cb ebc1
00000340: 778b 4941 da02 02c2 fe0f f7c1 682e 8140
00000350: ddf7 2ac1 77db 23c1 6daa 2f41 53d7 3ec1
00000360: e7a0 49c1 eb7f cdc1 83f0 8641 0804 78c1
00000370: 15a5 9cc1 34ed 6741 9845 73c0 dd40 9b41
00000380: 23c9 1442 630c 56c1 136c 2541 643d 1fc0
00000390: 2a12 3dbf 271f 8ebf f5fe b341 0352 66c0
000003a0: 0c51 f140 7447 4f41 cd86 a0c1 0cd0 3741
000003b0: e309 1541 19f7 45c1 f72c ed41 14e2 f941
000003c0: 815e e0c1 0c30 7c41 ac96 ebbd 56f2 fac1
000003d0: 4608 a9c0 91d1 8d41 56b2 adc1 2442 91c1
000003e0: f104 1d40 5298 a540 2bb0 1d40 58e6 9cc1
000003f0: 659f 1841 4ff1 a040 9d84 1c42 a9b6 a5c1

0.weight f4 [2, 1024]
-0.22489797 2.1540482 1.2820973 -0.24646622 0.22979327 -1.8902246 -0.29500377 0.5430546
-1.8266133 -0.3882518 1.9261384 0.22163776 -0.28791547 0.017665913 0.7052094 -0.0033704648
0.764755 -0.21386097 0.21261562 -0.2137707 1.1839576 -0.31326944 -0.1271765 -1.2631991
-0.7092768 -1.2997094 0.24086554 0.009069015 -1.8054724 1.9769655 -0.66732794 0.97499084
-0.53381765 0.9652816 0.9933939 0.67408985 -0.963841 -0.56279355 -0.63884234 -0.51473516
-0.119689524 0.09677204 -0.03289228 -1.2030388 -0.5344014 -0.71546936 0.5357913 -0.98186606
0.54753304 -1.0058845 -0.26302767 -0.7969542 -0.35146558 1.9436656 -0.022400293 0.3911739
-1.0435351 2.2809284 0.355851 -1.0037246 -1.2126983 0.14614579 1.0353879 2.093465
0.40799952 0.54474014 -3.3471637 0.78050756 -0.22720027 -1.0399609 1.1868598 -1.3321552
-2.4177783 0.15849544 1.5509377 1.0780649 -1.7335043 -0.34915248 -0.4006421 1.0662515
0.5533283 -0.20047486 -0.19972326 0.20854662 -0.4845426 0.08036727 -0.014530552 1.1272151
-1.0733434 0.59542704 -1.3480387 0.20881814 0.68914765 -3.0972652 0.730898 0.5206109
0.39824823 -2.1970124 0.1502745 1.6403241 -0.0043807137 -0.16847423 -2.8349836 -0.060817614
-0.10551097 0.6726124 0.5294057 -0.4756901 2.019254 0.7736517 -1.0175729 0.4782956
2.3068852 -1.6568677 2.0543602 -1.4735876 1.0214155 2.255577 -0.62563485 -0.76245874
0.9130827 -0.707171 1.1007113 0.30421552 -0.18065819 -0.07883874 0.18522891 1.396595
1.5710523 -1.4238732 -0.33556512 0.48931804 0.029125543 0.64176166 0.6439316 -1.141096
-0.7089785 0.5290267 0.8651394 1.3014436 3.2532175 0.30545008 0.5277932 -0.58323044
-0.4415034 -1.0560352 0.33320877 -0.5534926 -0.8201747 -0.2942492 -0.13291675 0.59130037
-0.3926882 -0.76983607 1.2768612 1.3523382 0.0027517446 -0.53610384 0.02328557 -0.25524116
1.2851818 -1.2771872 0.86616075 0.5502801 -0.91459405 -0.5187586 0.094142996 0.70533943
-0.61937934 0.2563708 -0.36072114 0.48526087 0.19346955 0.5793635 0.8296463 0.028097302
0.9740452 -1.042862 0.21552694 -0.6642279 0.32449588 -0.87000126 0.091696054 0.6273127
-0.050261024 -0.59178984 -0.26355636 -1.5903411 -0.29677317 0.5621729 -0.21455419 -0.10949388
0.015033676 1.1449255 0.86432207 -0.7707263 0.1461649 0.51492167 -0.90346324 -0.45002285
-0.8955807 1.5858299 1.3897293 -1.0927618 -0.6197401 1.5252254 -1.2565612 -2.0870018
1.8096951 -1.2575209 0.808415 -0.14286299 -0.48689407 -0.32466096 -0.15979323 -2.2251482
-2.09034 -0.31520152 0.26807106 -2.3653605 2.0087516 -0.63887715 0.6593129 -0.07752289
-1.277514 1.2372981 -0.34865522 -2.4636695 -1.3266671 -0.50841284 -1.4442023 -0.99226207
-1.4514849 -0.2861016 1.0457944 0.33803102 0.010569361 0.6169406 1.1922122 -1.090526
0.9887993 -1.4306464 -0.4676815 0.21697824 0.3461413 0.5848796 -0.69011354 0.45722806
-1.9433528 -0.5350938 -1.157143 -2.26608 0.62346953 0.39744517 2.2542455 -1.2610028
00000000: a74b 66be eddb 0940 c41b a43f a461 7cbe
00000010: ed4e 6b3e e1f2 f1bf bc0a 97be a005 0b3f
00000020: 77ce e9bf f1c8 c6be b48b f63f 02f5 623e
00000030: a869 93be 1bb8 903c 9a88 343f 04e3 5cbb
00000040: fcc6 433f 5ffe 5abe e9b7 593e b5e6 5abe
00000050: ec8b 973f da64 a0be 8e3a 02be 82b0 a1bf
00000060: 2a93 35bf e15c a6bf 75a5 763e 3596 143c
00000070: b819 e7bf 350d fd3f 01d6 2abf 0099 793f
00000080: 46a8 08bf b21c 773f 104f 7e3f 2791 2c3f
00000090: 49be 76bf 3d13 10bf 2c8b 23bf afc5 03bf
000000a0: c81f f5bd 6b30 c63d 0eba 06bd 2dfd 99bf
000000b0: 88ce 08bf 0029 37bf 9e29 093f 935b 7bbf
000000c0: 202b 0c3f d3c0 80bf 90ab 86be 3105 4cbf
000000d0: 4cf3 b3be 09ca f83f d280 b7bc f247 c83e
000000e0: 8f92 85bf bbfa 1140 1a32 b63e 0c7a 80bf
000000f0: b339 9bbf 3ea7 153e 9787 843f 55fb 0540
00000100: 50e5 d03e 1774 0b3f ee37 56c0 58cf 473f
00000110: 30a7 68be 701d 85bf 06eb 973f 1084 aabf
00000120: e1bc 1ac0 a14c 223e 2085 c63f 08fe 893f
00000130: 78e3 ddbf 1dc4 b2be f620 cdbe ee7a 883f
00000140: eca6 0d3f 4849 4dbe 4184 4cbe 3f8d 553e
00000150: f815 f8be 9897 a43d 8d11 6ebc 9648 903f
00000160: 5163 89bf e86d 183f 888c acbf 6cd4 553e
00000170: fb6b 303f 9839 46c0 221c 3b3f c246 053f
00000180: 31e7 cb3e da9b 0cc0 8fe1 193e 24f6 d13f
00000190: 178c 8fbb 8284 2cbe 5f70 35c0 e41b 79bd
000001a0: 2316 d8bd 5430 2c3f 2287 073f a78d f3be
000001b0: 753b 0140 0a0e 463f d43f 82bf 29e3 f43e
000001c0: 02a4 1340 3e14 d4bf a37a 0340 859e bcbf
000001d0: bebd 823f 605b 1040 9b29 20bf 7f30 43bf
000001e0: cabf 693f 2909 35bf 1ce4 8c3f 23c2 9b3e
000001f0: 76fe 38be 3576 a1bd a6ac 3d3e a0c3 b23f
00000200: 3e18 c93f 7a41 b6bf 31cf abbe e587 fa3e
00000210: b198 ee3c 7e4a 243f b4d8 243f 6f0f 92bf
00000220: 9d7f 35bf 4b6e 073f c779 5d3f b495 a63f
00000230: b734 5040 f463 9c3e 751d 073f 974e 15bf
00000240: bc0c e2be 292c 87bf 579a aa3e b1b1 0dbf
00000250: f8f6 51bf d5a7 96be 541b 08be 765f 173f
00000260: 6e0e c9be fa13 45bf 3070 a33f 6b19 ad3f
00000270: 9d56 343b 1a3e 09bf 61c1 be3c f8ae 82be
00000280: d680 a43f df7a a3bf b6bc 5d3f 28df 0c3f
00000290: d622 6abf 5dcd 04bf 0bce c03d 2091 343f
000002a0: a58f 1ebf 0943 833e 71b0 b8be 1d74 f83e
000002b0: e21c 463e 2b51 143f b363 543f 502c e63c
000002c0: 075b 793f 817c 85bf 18b3 5c3e d70a 2abf
000002d0: 5324 a63e 67b8 5ebf 24cb bb3d 9197 203f
000002e0: 81de 4dbd 8a7f 17bf dcf0 86be 4c90 cbbf
000002f0: a7f2 97be 90ea 0f3f 18b4 5bbe 543e e0bd
00000300: cf4f 763c eb8c 923f 3644 5d3f 524e 45bf
00000310: 40ac 153e e8d1 033f 5e49 67bf 6569 e6be
00000320: c744 65bf 79fc ca3f a6e2 b13f 9edf 8bbf
00000330: 4aa7 1ebf 963a c33f ffd6 a0bf 7091 05c0
00000340: 17a4 e73f 72f6 a0bf 49f4 4e3f ad4a 12be
00000350: 2e4a f9be f639 a6be d6a0 23be d468 0ec0
00000360: 21c8 05c0 1862 a1be 9c40 893e 1162 17c0
00000370: 638f 0040 748d 23bf bbc8 283f 52c4 9ebd
00000380: 9485 a3bf c95f 9e3f f082 b2be c3ac 1dc0
00000390: 3ad0 a9bf 5827 02bf 9fdb b8bf e304 7ebf
000003a0: 42ca b9bf e97b 92be 97dc 853f 6712 ad3e
000003b0: 1d2b 2d3c d2ef 1d3f 699a 983f 5b96 8bbf
000003c0: f321 7d3f 6c1f b7bf f373 efbe 8b2f 5e3e
000003d0: 6f39 b13e abba 153f 48ab 30bf cc19 ea3e
000003e0: c9bf f8bf e8fb 08bf 431d 94bf 7407 11c0
000003f0: b39b 1f3f ef7d cb3e 8f45 1040 8a68 a1bf

0.bias f4 [2]
-1.801886 1.7535408
00000000: 33a4 e6bf 0674 e03f
