optima/checkpoints/mnli/msick.pt (torch, 419359 bytes, 3 tensors)

unshared_soft_embeds f4 [100, 1024]
0	0xc21c3303	-39.049816
1	0xc04c0a84	-3.1881418
2	0xc1f27843	-30.308722
3	0x41007371	8.028184
4	0x420efdf7	35.748013
5	0x417bef73	15.745959
6	0x424cefab	51.23405
7	0x4136dccc	11.4289055
8	0xc1e546a5	-28.659494
9	0xc214333e	-37.05004
10	0x41b6850d	22.814966
11	0x40105743	2.255326
12	0xc18efa9c	-17.872368
13	0xc2883cd4	-68.118805
14	0x3f238306	0.638718
15	0x41e00269	28.001177
16	0x410de9e3	8.869601
17	0xc210dae1	-36.21375
18	0xc1d389f3	-26.442358
19	0x412c07c9	10.751901
20	0x4207712b	33.860516
21	0x41ff31a5	31.89924
22	0x40da4e5e	6.8220663
23	0x42521be4	52.527237
24	0x40fa3554	7.81901
25	0x41b61ae7	22.763136
26	0xc252f9fe	-52.744133
27	0x413e8b1f	11.908965
28	0x4128e75d	10.556485
29	0x41e600c0	28.750366
30	0xc0227ed3	-2.5389907
31	0x42048aac	33.13542
32	0xc1f2788a	-30.308857
33	0xc130fe11	-11.062028
34	0x415e627b	13.899043
35	0x420e85e2	35.630745
36	0x421346f0	36.819275
37	0x4252778d	52.61675
38	0xc17475ee	-15.278791
39	0x41367aa0	11.404938
40	0xc11fc0bc	-9.984554
41	0xc0ae8530	-5.4537582
42	0xc07be702	-3.9359746
43	0xbfc8c07b	-1.568374
44	0xc2dbe8a4	-109.95438
45	0x3fe2cd5b	1.771892
46	0xc26409a5	-57.00942
47	0x411f7785	9.96668
48	0x41f6043a	30.752064
49	0x4290943b	72.28951
50	0xc16f3150	-14.949539
51	0x425f78a4	55.867813
52	0xc208aa86	-34.166527
53	0xc1f4c23a	-30.594837
54	0xbf21cf7b	-0.63207215
55	0xc20904e8	-34.25479
56	0xc2016ece	-32.358208
57	0xc23a2eac	-46.545578
58	0xc1d056be	-26.042355
59	0x4173751d	15.216092
60	0x422b52cd	42.83086
61	0xc1073891	-8.45131
62	0xc2910633	-72.51211
63	0xc202b23d	-32.67406
64	0xc23b4426	-46.81655
65	0x3fd9788a	1.6989911
66	0xc1c909ae	-25.129726
67	0x421806ea	38.006752
68	0xc2197ea8	-38.373688
69	0x41236c84	10.213993
70	0x421308ed	36.758717
71	0xc1ee8c8a	-29.818623
72	0x3f835ea3	1.0263256
73	0x4163266b	14.196879
74	0xc18b0c63	-17.381048
75	0x409236e6	4.5692015
76	0xc1678af1	-14.471421
77	0x401d0c70	2.4538841
78	0x4252ae8c	52.670456
79	0xc0c86f3c	-6.2635784
80	0x40b967f2	5.7939386
81	0xbdda431c	-0.10657331
82	0xbfa740ed	-1.3066689
83	0xc020e9f8	-2.5142803
84	0xc12ada60	-10.678314
85	0x40f0dad7	7.526714
86	0xbfb64b79	-1.4241782
87	0xc0c2b30a	-6.0843554
88	0x425454a4	53.082657
89	0x429edf40	79.436035
90	0x41c01b72	24.013401
91	0x42039e77	32.90475
92	0xc184c735	-16.59727
93	0x4054d618	3.3255672
94	0xc1246a92	-10.276018
95	0x41e1bd31	28.217379
96	0xc25ec7c5	-55.695087
97	0x4191bc02	18.2168
98	0x411da712	9.853289
99	0x4020142c	2.5012312
100	0x4175fcb8	15.374199
101	0x409ffe3b	4.999784
102	0xc12e1e78	-10.882439
103	0x41938eda	18.444752
104	0x40f1cd2c	7.5562954
105	0xc1e5fcb8	-28.748398
106	0x414eb947	12.920234
107	0x41924538	18.283798
108	0xc242a3f8	-48.660126
109	0xc18eeb6b	-17.86495
110	0xc25b7ab2	-54.86982
111	0x4127d34f	10.489089
112	0xc014f472	-2.3274198
113	0xc1905447	-18.041151
114	0x41eb2733	29.39414
115	0xc0d31cbd	-6.597258
116	0xc18ea7ac	-17.831871
117	0x408c40f8	4.3829308
118	0x40f22ac0	7.5677185
119	0xc1cffc7b	-25.998281
120	0x41978096	18.937786
121	0x42081fd3	34.03108
122	0x4210080c	36.00786
123	0x3fcded92	1.6088126
124	0xc17f24b1	-15.946458
125	0x41e87789	29.058367
126	0xc21f4191	-39.81403
127	0xc18d226b	-17.641806
128	0xc20bbda8	-34.93521
129	0x40c1bcd2	6.0542994
130	0x4168a952	14.541338
131	0xc0c5fc85	-6.187075
132	0x4170ddae	15.054121
133	0xc10ed1aa	-8.9261875
134	0xc21d3c47	-39.308865
135	0x406e1a4b	3.7203548
136	0xc10f8dcb	-8.972117
137	0x411425be	9.259214
138	0xc1b71d35	-22.889261
139	0x42024c44	32.57448
140	0xc19da7cc	-19.706932
141	0x421f6535	39.848835
142	0x40eb74a8	7.3579903
143	0xc22de1ff	-43.4707
144	0xc1919bdc	-18.201103
145	0x3fe8b102	1.8179018
146	0xc2517e2d	-52.37322
147	0xc20a01dd	-34.50182
148	0xc036f3af	-2.8586233
149	0x41ce995e	25.824886
150	0xc201e41c	-32.472763
151	0xc105c85a	-8.361414
152	0xc119348b	-9.575328
153	0x41d261cb	26.29775
154	0xc2370c81	-45.76221
155	0xc069f691	-3.6556742
156	0x41267527	10.403602
157	0xc22cc67d	-43.193836
158	0xc1d3f58d	-26.494898
159	0x41c2b97b	24.340567
160	0xc1a26239	-20.29796
161	0x4170def5	15.054433
162	0x421dfb8f	39.495663
163	0x40e74fbe	7.228484
164	0xc1872a02	-16.895512
165	0xc26e2d96	-59.544518
166	0x41a21f72	20.265354
167	0x4265e7f0	57.4765
168	0xc1cd63ec	-25.67379
169	0xc18b93fa	-17.447254
170	0x40d20052	6.562539
171	0x415d65b0	13.837326
172	0xc2147d13	-37.122143
173	0x408c3110	4.380989
174	0x42125913	36.586987
175	0x40caa6f8	6.332882
176	0x4037e453	2.8733108
177	0xc2007b40	-32.12036
178	0xc23843dd	-46.066273
179	0x4062f62e	3.5462756
180	0xbf617796	-0.880731
181	0xc16a9c20	-14.663116
182	0x420ed119	35.704197
183	0x41d00667	26.003126
184	0xc1a41c8c	-20.513939
185	0xc24e22aa	-51.53385
186	0xc296495d	-75.14329
187	0xc0b17a78	-5.5462
188	0xbee2a775	-0.44268385
189	0x418ae165	17.360056
190	0xc275ed06	-61.48147
191	0xc0a948d8	-5.290142
192	0xc0773dfd	-3.8631585
193	0xc18221bf	-16.266478
194	0xc1b48e41	-22.56946
195	0x3fcc4319	1.5957977
196	0x415b53ba	13.707941
197	0xbdbed5c1	-0.09318114
198	0xc1551e2c	-13.319866
199	0xbec3d1aa	-0.38245898
200	0xc24012e0	-48.018433
201	0xc18d607e	-17.672115
202	0x418c7820	17.558655
203	0x41645c0a	14.27247
204	0xc20ae0dc	-34.71959
205	0xc0a0e6dd	-5.0281816
206	0x42079a8d	33.90093
207	0x42225163	40.57948
208	0x40606a53	3.5064895
209	0x4125e664	10.368748
210	0xc2076f05	-33.858418
211	0xc20251c9	-32.57987
212	0x4028e0f1	2.6387293
213	0xc0c853a7	-6.2602115
214	0x3fa587ef	1.2932109
215	0xc2321dec	-44.52922
216	0xc1a36949	-20.426409
217	0x419bf98d	19.496851
218	0xc1674722	-14.454866
219	0x41e649d3	28.786047
220	0x4222ce91	40.701725
221	0xc0382644	-2.8773355
222	0x3fdada97	1.7097958
223	0x41b4a96a	22.582722
224	0x40486bb9	3.1315749
225	0xc25ba804	-54.914078
226	0xc2130daa	-36.763344
227	0xc1bce76d	-23.613
228	0x41b767af	22.925627
229	0xc09e7dcf	-4.9528575
230	0xc24e56ae	-51.58465
231	0x4161abb6	14.104422
232	0xc15b3b17	-13.701926
233	0xc1a7f466	-20.994335
234	0x41784b44	15.518375
235	0x41686150	14.523758
236	0x41fbd538	31.47911
237	0xbfc0fe59	-1.5077621
238	0x41d3c98b	26.47341
239	0x42576323	53.846813
240	0xc0b906b8	-5.78207
241	0xc1f429fc	-30.5205
242	0xc0240a85	-2.563142
243	0x41a073b5	20.056498
244	0x40fa8a88	7.8294106
245	0xc195f5c2	-18.744999
246	0x40ce18c6	6.440524
247	0x4086ea38	4.216091
248	0xc18e9e4b	-17.827291
249	0xc21911b7	-38.2673
250	0x41cc3880	25.527588
251	0x424fdb86	51.96438
252	0xc0e5283d	-7.161162
253	0xc243a226	-48.908348
254	0xc1c50dfc	-24.631828
255	0xc1748377	-15.282096

0.weight f4 [2, 1024]
0	0xbfc1bdb7	-1.5136021
1	0xbf3bd566	-0.73372495
2	0x3f75bc34	0.959903
3	0x3f280d92	0.65645707
4	0x3e2b8452	0.16749695
5	0xbfc2ee29	-1.5228931
6	0x3edab53c	0.42716396
7	0x3e1acfae	0.15118286
8	0x3e394a2d	0.18094702
9	0x401a9f96	2.4159904
10	0xbe086866	-0.13321075
11	0x3f188625	0.5957969
12	0xbf358895	-0.7091153
13	0xbf05e8ec	-0.52308536
14	0xbf2c6e2e	-0.6735562
15	0xbd8b2e1d	-0.06795905
16	0x3d0ce4cb	0.03439788
17	0xbe9cc332	-0.30617672
18	0x3af7be0c	0.0018901243
19	0x3fbaf98a	1.4607403
20	0xbee3f0fe	-0.445198
21	0xbf9ebaec	-1.2400794
22	0xbefd64dc	-0.49491012
23	0xc0236048	-2.5527515
24	0x3fcfb615	1.6227442
25	0x3f884d84	1.0648656
26	0x3f6705d7	0.90243286
27	0xbd730258	-0.059328407
28	0x400976d6	2.1478782
29	0xbfba2e66	-1.454541
30	0xbf949d1d	-1.1610447
31	0x3ffd9937	1.9812382
32	0x3e111a00	0.14170074
33	0xbe806788	-0.25078988
34	0x3fb5dccd	1.4208008
35	0xbf48ded7	-0.78465027
36	0xbf6340a4	-0.8877051
37	0xbf10dd28	-0.5658746
38	0xbec77537	-0.38956615
39	0xbf8a93fe	-1.0826414
40	0xbfbd1c2c	-1.4774222
41	0xbfa21213	-1.2661766
42	0xbce4a69c	-0.027911477
43	0x3be9aa43	0.0071308925
44	0x3f6df486	0.9295124
45	0xbfa5fcdc	-1.2967792
46	0x3fa818f3	1.3132614
47	0x3f3ac943	0.7296335
48	0x3f776094	0.9663174
49	0x400638af	2.0972097
50	0x3fb3299a	1.3997071
51	0xbecb7e05	-0.39744583
52	0xbd8a65af	-0.06757676
53	0xbf9d28e7	-1.2278107
54	0xbf87b842	-1.0603106
55	0x3fbd1925	1.4773299
56	0x3e3f7eae	0.18700668
57	0x3f9bebd2	1.2181342
58	0xbfc525bd	-1.5402142
59	0x3f9feb12	1.2493613
60	0xbe4295eb	-0.19002502
61	0x3f8fefdb	1.1245073
62	0xbfe36ffd	-1.7768551
63	0xbf839f1c	-1.0282931
64	0xbf3e8d1a	-0.74434054
65	0xbfe04716	-1.7521694
66	0x3f970767	1.1799134
67	0xbff10858	-1.8830671
68	0x3fb5a098	1.4189634
69	0xc08a872b	-4.329
70	0x3e5a8291	0.2133887
71	0xbf706873	-0.93909377
72	0xbf943f71	-1.1581861
73	0xbf15d201	-0.58523566
74	0x3e0b3c91	0.13597323
75	0xbd631511	-0.055440012
76	0xbea80868	-0.32818913
77	0x3e49c336	0.19703373
78	0x40244d08	2.5672016
79	0xbf3ad525	-0.7298148
80	0x3f2b51ad	0.669215
81	0x3fcdc1d1	1.6074773
82	0xbf319799	-0.69371945
83	0x3f2309eb	0.6368701
84	0xbfc9b5d1	-1.5758611
85	0x3e25d905	0.16196068
86	0xbd3a7866	-0.045524977
87	0xbfeb5cd7	-1.8387707
88	0x3f8d89bc	1.1057658
89	0x3fca49ae	1.5803735
90	0xbf78b60a	-0.9715277
91	0xbe2e5d92	-0.17027882
92	0x3f222be3	0.63348216
93	0x3e8c264b	0.27372965
94	0xbf1fa0e3	-0.6235487
95	0xbfad3077	-1.3530415
96	0xc00aa8e0	-2.1665573
97	0xbf0648aa	-0.52454627
98	0x3e82f116	0.2557456
99	0x3f14965a	0.5804192
100	0x3ebeeb75	0.37289014
101	0xbfd11233	-1.6333679
102	0x40023ee8	2.0350895
103	0xbf01a619	-0.5064407
104	0x3e6a83ad	0.22901793
105	0x3f6066bb	0.87656754
106	0xbf88f9a2	-1.0701182
107	0x402af59a	2.6712403
108	0xbba741f8	-0.0051042996
109	0x3f6c7431	0.92364794
110	0x3ed347a3	0.41265592
111	0x3eb5e12b	0.35523352
112	0xbf03c6bb	-0.51475114
113	0x3f42a538	0.76033354
114	0x3e5d48fe	0.21609876
115	0x3fa51a51	1.2898656
116	0x3f244d86	0.6418079
117	0x3f1016b2	0.5628463
118	0x3eef7877	0.46771595
119	0xbf27e196	-0.6557859
120	0xbf6218f0	-0.883193
121	0xbfb0add2	-1.3803046
122	0xbf7c338d	-0.9851616
123	0xbe8acecc	-0.27110898
124	0xbf837f4c	-1.0273223
125	0xc0412577	-3.0179117
126	0xc0532804	-3.2993174
127	0x3fe9789b	1.8239931
128	0xbf06dca5	-0.52680427
129	0xbfd4d177	-1.6626424
130	0x4039f774	2.9057283
131	0xbede99ae	-0.43476623
132	0xbf797f99	-0.97460324
133	0x405b90af	3.4307058
134	0xbf0c465b	-0.54794854
135	0x3fd8134a	1.6880887
136	0x3de136ca	0.10996778
137	0x3ff28971	1.8948194
138	0xbf48a3cc	-0.78374934
139	0x3ed96a58	0.42463946
140	0x4000f5e2	2.0150075
141	0xbdb850f4	-0.089998156
142	0xbfc07d29	-1.5038196
143	0xbdbc136b	-0.09183391
144	0x3c511d13	0.0127632795
145	0xbf91e979	-1.1399375
146	0xbf235ff7	-0.63818306
147	0xbf151ddc	-0.58248687
148	0x3e67043f	0.22560214
149	0xc0756fcd	-3.8349488
150	0x3e11cd38	0.14238441
151	0x4027fcd8	2.6248074
152	0x3ef3f449	0.47647312
153	0xbdee38d8	-0.11631936
154	0x3dfdeaa1	0.123982675
155	0xbf1b76fd	-0.60728437
156	0xbebedeb6	-0.3727929
157	0x4007d1f5	2.1221898
158	0x3d238be9	0.03992835
159	0xbfb3df99	-1.4052612
160	0x3d52808a	0.051392116
161	0x40958d75	4.6735177
162	0x3ec71d63	0.38889608
163	0x3e428d7c	0.18999285
164	0xbfdc9ada	-1.7234757
165	0x3d9c59b8	0.076343
166	0x3f19352f	0.59846777
167	0x3fb2b101	1.3960267
168	0x3fc4e739	1.5383064
169	0xbe086443	-0.13319497
170	0xbc8b0c14	-0.016973533
171	0xc019b3a4	-2.4015894
172	0x3e6dcade	0.23221919
173	0xbce71303	-0.028207308
174	0xbf8de2cc	-1.1084838
175	0xbe8dc83d	-0.27691832
176	0xbfb00faf	-1.3754786
177	0x4000b5b1	2.0110896
178	0xbf1512e9	-0.5823198
179	0xc0680fb6	-3.625959
180	0x40066920	2.1001663
181	0xbdb68600	-0.08912277
182	0xbf85b940	-1.0447159
183	0xbfb897be	-1.4421308
184	0x401f01d9	2.4844878
185	0xbfca20f2	-1.5791304
186	0x3edb47dd	0.42828265
187	0x3fa13cd1	1.2596685
188	0xbf0faaf7	-0.56120247
189	0x3fe34ce5	1.7757841
190	0x3f7101a8	0.9414315
191	0xbf3f383c	-0.7469518
192	0xbfea9330	-1.8326168
193	0x3f0858d3	0.53260535
194	0xbfa1b550	-1.2633457
195	0xbe6f0f9b	-0.23345797
196	0xbfd15b5a	-1.6356003
197	0xbfb9d318	-1.4517546
198	0x3e968fd2	0.294066
199	0x3fe8893a	1.8166878
200	0x3e86ed92	0.26353127
201	0x3f123b8c	0.5712211
202	0x3e79d76e	0.24398586
203	0xbf19d7bc	-0.6009481
204	0xc00a4975	-2.1607335
205	0xbfc1a95c	-1.5129809
206	0xbf7fc579	-0.99910694
207	0xbec50f80	-0.38488388
208	0xc01a81e9	-2.414179
209	0x3fb3271d	1.3996311
210	0xbff7c011	-1.9355489
211	0x3ec0e58a	0.37675124
212	0x4018a0dd	2.3848183
213	0xbe539010	-0.20660424
214	0xbe358b8f	-0.17729019
215	0xbf94fdb4	-1.1639924
216	0xbc38e925	-0.011286055
217	0xbf20fea3	-0.62888545
218	0xbf36fcbc	-0.7147939
219	0x3ebc9b69	0.3683732
220	0x3e347305	0.17622001
221	0x3f3dd077	0.7414622
222	0x3e9976fa	0.29973584
223	0x3d539276	0.051653348
224	0xbe3c6a14	-0.1839984
225	0xc011ce0b	-2.2782009
226	0x3f6246ed	0.88389474
227	0xbf748b6b	-0.95525235
228	0xbe51a9c2	-0.20474914
229	0x3e8174ce	0.25284427
230	0x3fcb1c14	1.5867944
231	0x3f725373	0.94658583
232	0xbf6fc2f2	-0.9365684
233	0x3f85c2b8	1.0450048
234	0x3fd8c1c1	1.6934129
235	0xbdbb2e25	-0.09139661
236	0xbf1e7e27	-0.61911243
237	0x3fdd4480	1.728653
238	0x3e5ad541	0.21370412
239	0x3f7763b3	0.96636504
240	0x3f4351a7	0.76296467
241	0xbb89bd03	-0.00420344
242	0x3dc51f05	0.09625057
243	0xbf1f690e	-0.62269676
244	0x3fb84c50	1.4398289
245	0x3f990d69	1.1957217
246	0xbeeadd55	-0.45871988
247	0xbd5c3ead	-0.05377071
248	0xc030c7ab	-2.7621868
249	0xbf817c31	-1.0116025
250	0xbf157b06	-0.58390844
251	0xbfffe09d	-1.9990422
252	0x3eccf2c4	0.40028965
253	0xbef9e687	-0.4880869
254	0x3f86659a	1.0499756
255	0xbf894f6f	-1.0727366

0.bias f4 [2]
0	0xc03caead	-2.9481614
1	0x4039a499	2.9006712
