optima/checkpoints/mnli_prompt.pt (torch, 419359 bytes, 3 tensors)

unshared_soft_embeds f4 [100, 1024]
000000 8c c9 48 40 2c 86 f0 41 36 1e 3e c1 26 69 7c 42
       3.1373014 30.065514 -11.882376 63.102684
000010 1b e6 f8 c1 cb 8b 12 c2 3f 1a 97 c2 08 fe f0 be
       -31.112356 -36.636517 -75.55126 -0.4706881
000020 be 4d dd c1 c3 a3 90 c2 cb 0c bf c1 78 ee 5f 41
       -27.66296 -72.31985 -23.881247 13.99572
000030 b6 8d 6c 42 1d 7c 70 c0 a6 6e 27 c0 f8 de 90 42
       59.13839 -3.7575753 -2.6161284 72.435486
000040 7f 20 20 c2 1d 91 0e c0 3c 09 76 41 9b bd db 41
       -40.031734 -2.227607 15.3772545 27.46758
000050 de 67 37 c2 41 90 56 c1 70 a8 87 42 14 84 00 c2
       -45.851433 -13.410218 67.82898 -32.128983
000060 60 41 aa 40 41 7a 8c 41 f4 4e 86 c0 42 61 43 41
       5.3204803 17.559694 -4.197138 12.211245
000070 a6 a9 e1 41 a7 9b 4c c1 4a c2 5e c1 32 50 98 41
       28.207836 -12.788001 -13.922434 19.039158
000080 18 77 ba 41 53 3b 51 c1 09 0e ad 40 98 75 bb 40
       23.308151 -13.076983 5.4079633 5.8581047
000090 ea 4f 5f 42 8f 52 49 42 81 fc 8a c1 e5 c4 2b 41
       55.82804 50.330624 -17.373293 10.73557
0000a0 b1 1d ac c1 67 e5 21 42 2b ea 98 41 16 e9 5e 41
       -21.514498 40.474026 19.11434 13.931906
0000b0 5b 50 1a c2 08 f9 1a c1 c3 27 a3 41 58 96 af c0
       -38.578472 -9.685799 20.394415 -5.4871025
0000c0 40 ca 99 41 62 64 83 41 f7 2e a1 41 11 2d 17 c1
       19.223755 16.424015 20.147932 -9.448503
0000d0 e6 ba 72 41 a5 21 b3 c1 43 e5 46 c1 2e 66 ce c0
       15.1706295 -22.391428 -12.430972 -6.449973
0000e0 10 fe dd bf f6 17 81 c1 e8 83 15 c2 a9 48 4d c1
       -1.7343159 -16.1367 -37.378815 -12.830239
0000f0 45 ae b5 41 4e 19 eb c1 7f 78 3d c0 f9 e0 06 c2
       22.710093 -29.387356 -2.9604795 -33.7197
000100 43 5b 8c c1 dd b7 57 40 6d a6 b1 c1 bf 96 09 c0
       -17.544561 3.3705971 -22.206263 -2.1498258
000110 bc b0 d4 41 ab 15 12 42 b1 03 09 c2 62 ee 14 42
       26.586296 36.52116 -34.253605 37.232796
000120 c2 da 6b 40 a3 34 a5 c1 e3 30 40 42 c5 71 85 42
       3.685227 -20.650702 48.04774 66.722206
000130 56 15 1a c1 7f 85 91 c1 b8 27 82 c1 2e a5 b5 c0
       -9.630209 -18.190184 -16.269394 -5.6764135
000140 25 fb 60 c2 b8 cb 02 42 22 f4 d4 c0 98 3d 32 42
       -56.24526 32.698944 -6.6548014 44.56015
000150 77 69 07 c2 53 4b 8c c1 7c 3f ce c1 6b 7b 3e 3f
       -33.852993 -17.53678 -25.780998 0.7440707
000160 d6 c1 80 c1 77 45 b6 c1 30 56 0c c2 fe 02 08 41
       -16.094646 -22.783918 -35.084167 8.5007305
000170 c2 17 de 41 51 89 fc c1 a0 00 6a 40 2c bd 1e 41
       27.7616 -31.567049 3.6562881 9.921185
000180 44 f1 63 41 01 f3 0b 41 06 69 13 42 5a 04 01 c2
       14.246403 8.746827 36.852562 -32.25425
000190 79 54 15 42 7c 3d 8a c2 68 3a 82 41 27 80 9d 42
       37.332493 -69.12009 16.278519 78.7503
0001a0 42 a9 98 42 22 48 6b c1 ee d9 81 c2 29 da 0b 42
       76.33058 -14.705111 -64.925644 34.963047
0001b0 43 01 d2 c1 1d 3f 1e 40 e1 e2 29 42 e3 aa e8 40
       -26.250616 2.4726021 42.47156 7.27086
0001c0 04 57 4a 42 04 d3 4e c0 c6 86 52 c0 27 16 f0 40
       50.584976 -3.2316294 -3.289476 7.502704
0001d0 cd 96 86 41 d5 e1 2a c0 82 4e fb 41 8a ca f9 c1
       16.823633 -2.6700337 31.413334 -31.223896
0001e0 5e b2 8d 42 3d 39 8d c1 38 a8 e1 41 86 2b a4 c1
       70.84837 -17.652948 28.207138 -20.521252
0001f0 d2 43 8e 40 bb 2e e1 c1 e8 b0 11 c0 b3 24 23 42
       4.445779 -28.147818 -2.2764225 40.78584
000200 b0 9f e2 c1 c7 68 cc bf 9f 46 c8 41 1f 76 4c c0
       -28.327972 -1.5969476 25.034483 -3.1947095
000210 09 41 e9 41 bb 60 d7 c1 a8 5d 82 40 bf fc d4 c0
       29.156755 -26.922232 4.0739326 -6.655853
000220 e4 80 0d c1 3f 0e 39 c2 33 7f fc c1 c5 8a b1 41
       -8.843967 -46.263912 -31.562109 22.192759
000230 c4 dd a1 c2 9d 0f 80 c1 bb 7e 80 42 9e a2 80 c1
       -80.933136 -16.007624 64.24752 -16.079403
000240 36 cf 13 c2 dc 1a 29 c2 1b 80 39 c2 bb 38 72 41
       -36.952354 -42.27623 -46.375103 15.13885
000250 9e 47 eb 40 e2 53 1c c2 59 78 30 c2 fa 77 b3 bf
       7.3524923 -39.081917 -44.117527 -1.4020989
000260 84 7c af 41 3b 2e 1b c1 02 80 6c c2 7d fd 2d 42
       21.935799 -9.698787 -59.125008 43.497547
000270 79 b5 1b 42 71 20 26 c1 1e f2 2b c2 cc 3e 85 41
       38.92722 -10.38292 -42.986443 16.655663
000280 cb 36 36 41 f9 ea 6a c1 6b 58 35 42 e0 a1 37 c1
       11.388377 -14.682366 45.336346 -11.47702
000290 a6 f1 7b 42 a2 c1 c2 42 45 62 01 c1 93 99 85 41
       62.985985 97.37819 -8.086492 16.699987
0002a0 dd c2 a5 c1 69 f5 dc c2 c6 73 4a c1 ab ef b2 c1
       -20.720148 -110.47932 -12.653265 -22.367025
0002b0 b4 0a c8 c1 aa ed 73 c0 53 22 b0 41 16 8d 53 c1
       -25.005226 -3.8113809 22.01676 -13.221945
0002c0 0f f4 99 c2 db f3 01 c2 83 82 2d c2 c3 4d a3 c1
       -76.97668 -32.48814 -43.377453 -20.41297
0002d0 a1 09 46 c1 ea 3b 35 c2 38 e5 01 c2 a5 2c 55 c1
       -12.377351 -45.30851 -32.473846 -13.3234
0002e0 ae 92 31 c1 b2 84 b4 bf d3 ef 4e c2 c6 eb ed 3f
       -11.09831 -1.4102995 -51.734203 1.8587577
0002f0 16 04 96 40 f0 45 ec 40 8d 88 1b c2 f7 e9 01 c2
       4.687999 7.3835373 -38.88335 -32.47848
000300 cd 02 68 3f 35 5a 63 42 1d 7d 8a 40 f5 73 1f c2
       0.90629274 56.838093 4.3277726 -39.86324
000310 be 47 37 c1 d7 f1 36 c1 9f 49 99 40 97 2c 5e 41
       -11.455015 -11.434043 4.790237 13.885886
000320 08 a9 ec c1 07 5b 42 c2 f5 f7 ad 41 7f 5c 59 c1
       -29.582535 -48.588894 21.746073 -13.585082
000330 f2 d6 f4 c0 bb 9c fe 40 73 90 76 41 e1 94 10 42
       -7.6512384 7.956632 15.410266 36.14539
000340 4f e3 9f 41 91 83 69 40 31 02 5c 41 7f b9 8d c0
       19.98599 3.6486552 13.750535 -4.4288936
000350 f1 ec 8d 40 f9 10 e4 c1 f6 88 50 c2 5f 91 f9 41
       4.4351735 -28.508287 -52.13375 31.195982
000360 21 e6 bf c1 c5 b2 f6 c1 76 b3 8a c0 d5 75 5c 42
       -23.987368 -30.83729 -4.334407 55.11507
000370 53 2f 07 c2 14 bc 8a c2 c1 aa 68 c1 1c ee 5e 42
       -33.796215 -69.36734 -14.541688 55.73253
000380 dd f7 d1 41 58 eb 40 c1 a9 c6 46 c1 ff 95 26 c1
       26.246027 -12.057457 -12.423501 -10.41162
000390 1d 05 44 40 a9 6c a3 c1 4c 4c a1 c1 0b 57 cf 42
       3.062812 -20.428057 -20.162254 103.670006
0003a0 fe 8f 16 41 a3 96 2b 41 aa 89 28 c1 04 dc 0d c2
       9.410154 10.724277 -10.533609 -35.46486
0003b0 2c f6 64 41 3b 64 b3 41 8f 93 cb 42 8a 9d 57 41
       14.310101 22.42394 101.7882 13.475962
0003c0 9d bb b0 c1 93 31 bf 41 39 32 8c c2 83 df a7 41
       -22.091608 23.899206 -70.09809 20.984137
0003d0 e5 9f 16 bf ff 71 2a 40 0d 6e e5 41 d5 d6 8d c0
       -0.5883773 2.6632078 28.678736 -4.4324746
0003e0 a3 d8 c9 41 b4 a2 4e c2 84 18 0a c2 f2 9a 89 c1
       25.23078 -51.65889 -34.52394 -17.200657
0003f0 80 ee 02 c2 1d ef 11 c0 92 b3 3f 42 1a d0 4f c2
       -32.73291 -2.2802193 47.92536 -51.953224

0.weight f4 [2, 1024]
000000 06 a2 9a 3f 5b 56 f5 3f 7b fa ca 3e c7 f6 d0 3c
       1.2080696 1.9166979 0.39644226 0.025508298
000010 28 c9 64 3f c3 3b bf 3e c0 d4 83 be 48 0a 92 bf
       0.8936944 0.37350282 -0.25748253 -1.1409388
000020 1d 42 00 3f 61 45 88 bf b9 0f 31 3f ee ab 91 be
       0.5010088 -1.0646173 0.69164616 -0.28451484
000030 f9 5b 38 bf 0a 7d 84 3e c0 cf d3 be 66 90 b0 3d
       -0.7201534 0.25876647 -0.41369438 0.08621292
000040 e0 87 41 bf 70 42 5d bf 3c b8 ab ba a9 ba db bf
       -0.75597954 -0.864295 -0.0013101171 -1.7166339
000050 b2 7c ee 3f 34 02 82 3e 05 0a 79 3f 28 7e 18 40
       1.8631804 0.25392306 0.97280914 2.3827
000060 bd ca 10 be ac 0c f0 3b b1 80 d7 bf be 5b 3b 3f
       -0.14139839 0.0073257294 -1.6836149 0.7318686
000070 d0 3a 9b bf 06 53 07 40 e8 ee 91 3f 90 1e a3 bb
       -1.2127323 2.1144423 1.1401033 -0.0049780086
000080 00 50 82 3f 13 3e 57 3f aa 73 1a c0 24 24 23 40
       1.0180664 0.8407909 -2.4133096 2.5490808
000090 5a 43 c8 bd 4c d6 d1 3d 28 84 e0 3e a1 30 6a 3f
       -0.09778471 0.10245952 0.43850827 0.9148045
0000a0 65 c0 8d bf e2 c4 d0 3f 43 0e 0c 3c 97 2c 2c bf
       -1.1074339 1.6310084 0.008548322 -0.6725554
0000b0 ed c6 6b be 07 43 80 3f 4f ab e1 be 14 fc 6f 3d
       -0.23025103 1.0020455 -0.4407601 0.05859001
0000c0 44 2a 1b 3f 43 e5 25 c0 5c ed c1 bf 48 fb 7f 3f
       0.6061137 -2.592118 -1.5150561 0.999928
0000d0 1a 04 8e bf 8e 93 00 3f c5 82 89 3f d4 10 92 bf
       -1.1095002 0.5022515 1.0743033 -1.1411386
0000e0 c0 b7 58 bf 44 2f a4 3e 18 d5 28 3f f8 b1 25 c0
       -0.8465538 0.3206731 0.65950155 -2.5889874
0000f0 2e 79 b4 3e 9e 6a fa bd 2f 0a 7b 3f 76 f6 03 3f
       0.35248703 -0.12227367 0.98062414 0.51547945
000100 e1 83 57 3f b5 7c 11 3f ed 75 b0 bf 69 12 ff 3f
       0.84185606 0.5683091 -1.3785988 1.9927493
000110 5c 50 2c 3f e3 ea b6 3f 03 b9 2e c0 4d 86 6d 3e
       0.6731012 1.4290432 -2.7300422 0.23195763
000120 7b d7 04 bf 00 a5 d4 3e c1 38 b8 3f d7 fd af 3f
       -0.518913 0.41532135 1.439232 1.3749341
000130 2f 83 2d bf 11 48 e5 be 3e 65 92 bf bb 7f 9c be
       -0.67778295 -0.44781545 -1.1437147 -0.305662
000140 07 d9 c3 3e ae 92 e6 3d 05 b4 01 3f 5e b8 a2 be
       0.38251516 0.11258446 0.50665313 -0.31781286
000150 75 be 95 3f ff 06 9f 3f ab d0 ab 3e 6d 09 19 40
       1.1698748 1.242401 0.3355764 2.3912003
000160 d0 de 06 bf 34 c7 1a 3d dc de 94 3f 3c 65 fb 3f
       -0.52683735 0.03778763 1.1630511 1.9640269
000170 ba 2b 42 bf aa 73 20 bf 1f 82 c8 3f db 64 65 3f
       -0.7584797 -0.6267649 1.566471 0.8960702
000180 45 2b 02 40 d8 ce 93 3e 6e 58 fc 3d 3f 1b de be
       2.033891 0.28868747 0.12321554 -0.43380162
000190 c7 77 0c be f6 14 08 3f 7e e8 a0 bf 4e 92 d1 bf
       -0.13717566 0.53156984 -1.2570951 -1.6372774
0001a0 2a b9 42 bf 57 7b f0 3e 58 c5 e3 be c9 a8 ae 3d
       -0.7606379 0.469691 -0.444865 0.08528287
0001b0 c0 2a 47 40 6c c4 ab bf 4f 06 3b be 34 a2 7f be
       3.1119843 -1.3419318 -0.18264125 -0.2496422
0001c0 a0 a0 5b be 13 0e 4c bf fc 57 dc be 5b 98 d0 bf
       -0.21447992 -0.79708976 -0.43035877 -1.6296495
0001d0 aa 30 1b 3f 1c a7 f3 be ab 92 df bf d2 02 63 be
       0.6062113 -0.47588432 -1.7466635 -0.22169045
0001e0 1a 71 46 be d5 8b 09 3f d2 5b 84 be 80 38 2e 3f
       -0.19379082 0.5372899 -0.25851303 0.6805496
0001f0 c6 4c 3f 3e d1 32 f4 3e 59 50 3b 40 e8 87 eb bf
       0.1868163 0.4769502 2.926779 -1.840085
000200 5b 74 cc 3e 49 58 e3 3f 27 fd 10 bf 31 09 1f be
       0.39932522 1.7761317 -0.5663628 -0.1553085
000210 a3 d1 63 bf 6b 37 bd be 1f 64 f0 3e 70 68 1a bf
       -0.88991755 -0.36956343 0.46951386 -0.6031561
000220 ad a8 d2 3e 3f 83 51 bf 82 d3 c9 3f 21 8b a4 3e
       0.41144314 -0.8184089 1.5767672 0.32137397
000230 59 b4 b9 3f 76 df c1 be 4a 06 f5 3e cd c9 1a 3f
       1.4508163 -0.378658 0.4785636 0.60464174
000240 38 c7 95 bf a9 5b 87 3f eb 49 d0 3e 47 14 36 bf
       -1.1701422 1.0574847 0.40681395 -0.7112469
000250 00 4f 5f 3d 05 7a 52 40 b8 66 b7 3e 47 87 2a 3c
       0.0545187 3.2886975 0.35820556 0.010408229
000260 ae 6c d1 bd c9 41 a0 3b 49 34 a4 bf 5e 1d 90 3e
       -0.10225807 0.0048906547 -1.2828456 0.28147405
000270 b7 43 a9 3e 6e 0e ba be 6a 52 17 3d 95 7d 96 bf
       0.33059475 -0.36339134 0.03694383 -1.1757075
000280 e8 6d e4 bf a9 af 59 c0 c9 2d 2c bf 63 51 ae 3e
       -1.7846041 -3.4013464 -0.6725736 0.34046468
000290 2f 2c ce 3f 0b d8 54 bf cd 06 2b 3f 06 10 c1 bf
       1.6107234 -0.83142155 0.6680725 -1.5083015
0002a0 d6 40 38 bf 24 1f e5 3e fb 59 e7 be d0 00 e5 3e
       -0.7197393 0.4475032 -0.45185837 0.44727182
0002b0 af 0f 5e bf ba c8 1a bf 73 db b0 3f 28 4a ae 3e
       -0.8674268 -0.60462534 1.381697 0.34040952
0002c0 1d 6a ae 3e a0 7a f8 bf d6 fc 43 3f cf 73 e2 3f
       0.34065333 -1.9412422 0.7655767 1.7691592
0002d0 50 47 a2 bf 4a c1 00 bf 5c 3c bc 3e 96 1d fc 3e
       -1.2678013 -0.50294936 0.367648 0.49241322
0002e0 10 6d 1b c0 1c d4 5f 3f 76 16 19 3f c7 8c 91 bf
       -2.4285316 0.8743303 0.597999 -1.1371087
0002f0 0c f2 bb 3f ec 5e c3 be ea e7 84 bf 60 dd 46 3d
       1.4683242 -0.38158357 -1.0383275 0.048550963
000300 0e ac 98 3e cb ca 24 bf 38 bc 80 3f c2 b2 a9 3f
       0.29818767 -0.6437194 1.005744 1.3257678
000310 fb 4e de 3f ae bd 36 3f 62 e6 d7 bf b5 9a 78 bf
       1.7367853 0.7138318 -1.6867182 -0.97111064
000320 1a 7c 1d 3d b2 cb 4d bf 7d 01 f0 3e 66 bc 51 3e
       0.03844843 -0.8038894 0.46876135 0.20482025
000330 4f 48 a6 be f0 eb bf 3e 87 68 f3 3d 54 92 8f bf
       -0.32477042 0.37484694 0.118851714 -1.1216531
000340 f4 be 1f bd a2 e9 e0 bf e3 01 7e be 57 06 c2 be
       -0.039000466 -1.7571299 -0.24805407 -0.37895462
000350 c5 35 51 c0 21 85 34 3e 08 82 1c 3f a9 ef f8 be
       -3.2689068 0.1762891 0.6113591 -0.48620346
000360 63 59 99 bf 68 b3 c3 3e b0 1f b8 3f 3c 9c 00 3e
       -1.1980404 0.38222814 1.438467 0.12559599
000370 67 dd a1 bf a7 b9 56 bf 23 80 17 3f 09 05 f3 be
       -1.2645692 -0.83877033 0.59179896 -0.4746478
000380 28 53 65 bf d2 5b d8 3f fe 25 92 be 38 85 8e 3f
       -0.8958001 1.6903021 -0.2854461 1.1134405
000390 e0 e2 d9 be f6 b0 ac bf b7 cf 42 bf d8 23 4f be
       -0.42555904 -1.3491504 -0.760982 -0.20228517
0003a0 45 49 93 3f 36 ba 2a c0 69 bc 13 3f fd e8 15 be
       1.1506735 -2.6676154 0.57709366 -0.14639659
0003b0 f9 fa a2 3e 89 8f 21 bf 20 0f af bf 83 10 17 3d
       0.31832102 -0.6310964 -1.3676491 0.03688098
0003c0 a5 8c c1 bd a9 d6 37 bf c9 91 8f bf 10 02 11 3f
       -0.09450654 -0.7181192 -1.1216365 0.5664377
0003d0 34 42 a6 bf ce 12 3b c0 40 9c c6 bf 98 86 89 3d
       -1.2988954 -2.9230227 -1.5516434 0.06715125
0003e0 86 49 b0 3f 59 3f da 3f ff b8 b1 3e 14 1f 50 3f
       1.3772438 1.7050582 0.34711453 0.8129742
0003f0 92 26 84 bf b7 f0 20 3f ff 01 b7 3d 42 99 06 be
       -1.0324271 0.628673 0.089359276 -0.131444

0.bias f4 [2]
000000 8c a6 cb be 77 53 b3 3e
       -0.39775503 0.35024616
