optima/checkpoints/mrpc_prompt.pt (torch, 419359 bytes, 3 tensors)

unshared_soft_embeds f4 [100, 1024]
-3.1298332 -11.493208 14.085784 3.4537213 4.1249847 18.132338 23.142385 -22.631954
7.264418 -7.039175 7.3270183 -28.271076 -15.103388 -21.972734 17.44002 -3.5375729
-14.097321 25.8287 18.154863 -5.2592564 -17.851019 2.3256593 -10.958327 1.8044069
1.9877148 -8.575668 -16.188702 -2.4011958 10.602293 5.6565404 -23.239372 -3.3829572
-15.642489 -25.46608 2.338717 12.116287 8.759086 -12.56897 12.141919 -2.244648
-0.3889312 2.3720226 17.739841 3.3057897 8.556336 -8.967717 12.409734 9.545424
-17.336353 17.230822 -14.123051 -16.500374 -19.84448 6.697724 -0.83877677 14.08218
-3.9626544 -19.207296 -11.848261 -3.410278 6.8825483 12.396638 1.4477724 5.3631663
-10.258071 8.339748 -9.318653 -3.7823927 7.7777295 -2.0502 4.899094 -8.120128
5.4105754 26.462978 -16.623905 16.594479 -17.58846 3.098753 21.939081 -6.470841
-17.506107 6.2868276 7.8371515 -22.356234 4.2732115 -7.458566 11.014435 9.645422
-19.485422 10.465547 -11.6482935 7.034941 -13.24887 -5.8389764 3.8846068 9.863432
8.38803 -3.9830523 -9.3369055 -21.388975 -9.865894 10.213966 10.25456 9.335084
-8.122948 20.608398 -7.350798 -21.485687 5.3014097 3.6034808 -5.273572 6.1452813
-9.985008 11.348018 30.995975 1.1281607 1.105036 -15.301757 8.252753 2.8018608
0.97393256 38.53006 10.895768 6.441706 0.032927252 3.5928738 -1.7806585 -20.493517
6.1708064 -1.0511813 -13.803555 -9.511334 -10.785267 -10.326846 -9.922814 9.482213
-11.980524 3.021666 14.419918 7.9636326 17.732904 -0.48350236 -10.668612 -14.092677
-20.022947 -19.4715 2.3692396 7.477535 13.944759 -2.0231628 6.7544713 -3.687757
-9.446803 14.559461 -8.69421 -3.266327 4.161183 1.6296165 -14.829694 18.536602
25.82836 7.131227 0.4843231 0.010999865 -14.869836 3.8740802 -13.01393 13.582433
18.089264 -10.146464 -2.473627 -1.9140979 -14.314754 -7.8468413 -10.4077835 12.149179
-12.208992 14.57054 7.895075 1.3203008 0.3281514 17.77664 14.546427 -5.9243984
4.833683 5.134252 36.174232 -15.655561 -1.0812558 -19.204374 -0.83637154 3.9405231
-14.013533 -2.14563 -5.523646 -16.521658 0.26790902 5.0071607 4.610489 3.2944229
-3.1048663 -11.656071 -7.7411413 -17.430233 4.2547283 -4.385542 -2.1079009 -7.61108
-5.8598785 -17.355686 -6.83087 2.0866525 10.467076 -4.8697457 1.9521098 8.660752
-7.1062856 -8.6727915 0.041956015 2.742636 13.041735 -2.0854092 6.7738976 -1.1849988
8.674483 9.581928 2.874393 -2.650103 -5.239401 0.230488 -8.451406 15.868445
20.114656 -13.47899 -7.9694176 -1.7041892 6.5658813 -6.299516 -7.351495 0.9409592
-1.2847577 -3.0325196 -0.23499534 -4.6503887 0.68764603 11.289609 1.343604 -15.068093
-13.586246 -4.3362727 6.939354 0.8007223 2.8384724 -3.9044216 11.88463 -1.9822124
00000000: 304f 48c0 2ee4 37c1 5f5f 6141 c509 5d40
00000010: e0ff 8340 070f 9141 9b23 b941 3e0e b5c1
00000020: 1d76 e840 ec40 e1c0 ef76 ea40 2a2b e2c1
00000030: 7aa7 71c1 29c8 afc1 2985 8b41 9867 62c0
00000040: a08e 61c1 2da1 ce41 293d 9141 d44b a8c0
00000050: e3ce 8ec1 9ad7 1440 4f55 2fc1 cef6 e63f
00000060: 706d fe3f f035 09c1 7682 81c1 31ad 19c0
00000070: fea2 2941 6102 b540 3cea b9c1 5f82 58c0
00000080: a347 7ac1 88ba cbc1 8aad 1540 50dc 4141
00000090: 3725 0c41 801a 49c1 4d45 4241 50a8 0fc0
000000a0: fe21 c7be 38cf 1740 32eb 8d41 0f92 5340
000000b0: c1e6 0841 c57b 0fc1 458e 4641 0fba 1841
000000c0: dab0 8ac1 b9d8 8941 04f8 61c1 c400 84c1
000000d0: 7fc1 9ec1 c153 d640 13ba 56bf 9c50 6141
000000e0: 219c 7dc0 8ba8 99c1 7a92 3dc1 ff41 5ac0
000000f0: d63d dc40 a158 4641 9b50 b93f 0f9f ab40
00000100: 0f21 24c1 9c6f 0541 3419 15c1 b912 72c0
00000110: 29e3 f840 7a36 03c0 61c5 9c40 0bec 01c1
00000120: 6f23 ad40 2eb4 d341 c2fd 84c1 7ec1 8441
00000130: 2bb5 8cc1 f851 4640 3d83 af41 2111 cfc0
00000140: 820c 8cc1 b12d c940 f2c9 fa40 91d9 b2c1
00000150: 26be 8840 93ac eec0 203b 3041 a653 1a41
00000160: 25e2 9bc1 e172 2741 695f 3ac1 3d1e e140
00000170: 5ffb 53c1 e5d8 bac0 669d 7840 9ed0 1d41
00000180: 5f35 0641 54ea 7ec0 f763 15c1 9f1c abc1
00000190: b4da 1dc1 686c 2341 ae12 2441 815c 1541
000001a0: 98f7 01c1 00de a441 bd39 ebc0 b0e2 abc1
000001b0: 26a5 a940 6e9f 6640 1ac1 a8c0 25a6 c440
000001c0: 98c2 1fc1 7b91 3541 c2f7 f741 9267 903f
000001d0: d271 8d3f ffd3 74c1 470b 0441 b051 3340
000001e0: a553 793f c81e 1a42 1155 2e41 7522 ce40
000001f0: bade 063d a5f1 6540 9eec e3bf b9f2 a3c1
00000200: 3f77 c540 1c8d 86bf 5cdb 5cc1 6d2e 18c1
00000210: 7490 2cc1 c33a 25c1 d9c3 1ec1 25b7 1741
00000220: 3ab0 3fc1 fa62 4140 fcb7 6641 14d6 fe40
00000230: fddc 8d41 9f8d f7be a2b2 2ac1 9b7b 61c1
00000240: ff2e a0c1 a2c5 9bc1 9fa1 1740 f747 ef40
00000250: bc1d 5f41 807b 01c0 a124 d840 3604 6cc0
00000260: 1b26 17c1 8df3 6841 7c1b 0bc1 800b 51c0
00000270: 6928 8540 4697 d03f 6d46 6dc1 f64a 9441
00000280: 7ba0 ce41 0333 e440 33f9 f73e c738 343c
00000290: d9ea 6dc1 eef0 7740 0f39 50c1 a551 5941
000002a0: d0b6 9041 eb57 22c1 e84f 1ec0 2901 f5bf
000002b0: 3b09 65c1 5319 fbc0 4886 26c1 0a63 4241
000002c0: 0858 43c1 ef20 6941 74a4 fc40 9eff a83f
000002d0: 7603 a83e 8f36 8e41 2abe 6841 ac94 bdc0
000002e0: 88ad 9a40 cb4b a440 6ab2 1042 2e7d 7ac1
000002f0: 9766 8abf 8fa2 99c1 721c 56bf 8831 7c40
00000300: 6e37 60c1 0052 09c0 b5c1 b0c0 5b2c 84c1
00000310: 5f2b 893e a93a a040 2089 9340 d3d7 5240
00000320: 21b6 46c0 447f 3ac1 6eb7 f7c0 1e71 8bc1
00000330: bc26 8840 5c56 8cc0 d9e7 06c0 f88d f3c0
00000340: 2084 bbc0 72d8 8ac1 7d96 dac0 b78b 0540
00000350: 2579 2741 f5d4 9bc0 bcde f93f 7192 0a41
00000360: b166 e3c0 c1c3 0ac1 12da 2b3d 5987 2f40
00000370: f2aa 5041 5877 05c0 c5c3 d840 0aae 97bf
00000380: afca 0a41 944f 1941 0ef6 3740 4a9b 29c0
00000390: 2ca9 a7c0 0c05 6c3e f538 07c1 27e5 7d41
000003a0: d1ea a041 f1a9 57c1 7805 ffc0 df22 dabf
000003b0: b31b d240 a395 c9c0 723f ebc0 b4e2 703f
000003c0: f172 a4bf cd14 42c0 9ea2 70be fccf 94c0
000003d0: 9209 303f 3da2 3441 37fb ab3f e916 71c1
000003e0: 4361 59c1 bfc2 8ac0 300f de40 23fc 4c3f
000003f0: 88a9 3540 0be2 79c0 7227 3e41 23b9 fdbf

0.weight f4 [2, 1024]
0.08559954 -1.4679195 -0.6350204 1.5296619 0.00984841 -2.1436486 -2.0273852 -0.58731884
3.0282135 0.6079386 1.3338993 1.7535975 0.029727101 -0.11895952 -0.91402906 0.12209096
0.17840251 -0.80934757 -0.5904903 0.7699583 -1.060079 -0.5897778 -0.5545874 2.085045
1.6593026 3.6954734 -1.0167047 -0.6078735 1.1036359 -0.2165944 0.07796569 1.0863209
0.24097928 -0.24819389 0.222091 -0.45262638 0.8040822 0.7452368 -0.5934368 0.36706123
-1.3875803 2.8157544 -0.02393379 0.33781585 -1.6100024 -1.1165209 0.9301603 1.4472395
-0.09817612 0.46709552 -3.1515768 1.4446447 0.5739916 1.2510507 -0.1252412 0.926647
-0.25521314 -0.19367081 0.11749074 0.82814395 -3.601856 0.46901655 1.4239885 -1.4053613
0.90929824 -0.13094738 -2.1321266 -0.6080223 3.614299 0.34841803 -1.1518799 1.4585934
-1.1757005 0.19739203 -1.8594455 -2.628558 -1.4881599 -0.6656287 -0.64546204 1.6832491
0.14331463 -0.37450638 1.5029587 0.20051143 1.4488889 -1.1181308 1.3775584 0.40499508
-2.7600636 -1.2584251 -0.12383178 1.2285669 -0.27133858 0.10306384 1.3774348 -1.5364393
0.059473276 0.55787706 1.5804772 -0.33735228 0.974252 -1.4519771 -1.435056 -1.6379133
-0.4181401 1.0066446 -3.0134656 -0.28248873 3.2490714 2.5891724 -0.09797388 -3.1781144
2.5180779 0.23071106 0.88829106 0.7549816 0.698379 3.829304 -0.9148295 -0.6415186
-1.0774504 -0.07571803 1.113517 -0.2184877 0.0003294782 -0.49415424 -0.77755976 -0.50778216
1.90183 -2.0600731 1.0981071 3.9717953 1.2922952 -2.1460555 -1.1810095 -3.362897
0.8601308 0.8660707 -0.78838265 1.8836342 2.6211517 -0.31897035 -3.309923 -0.81872904
4.916427 1.4124304 -0.429783 0.5437068 0.56957006 -1.4312702 2.1223462 0.044694692
-1.1457317 -0.57332283 1.4935457 -1.8119223 0.3975434 -3.0804772 0.018018937 0.29084736
-0.07619841 -0.62531376 -1.2902578 0.9650845 0.22462784 0.7238803 0.7685459 0.29162726
-1.0437529 1.459878 1.6614499 -1.8044763 -0.23541345 -0.26630455 0.5473278 -0.14005801
0.8971598 -0.65731627 1.2736573 1.4687908 1.7212172 1.8927902 1.1388376 -0.66080296
1.4883114 1.3041961 -0.66135687 0.9832204 -0.8139336 -0.73874414 1.3820515 -0.81017315
1.864723 0.14075825 1.6096767 -1.325416 -1.5811455 0.04191373 -2.3994792 0.6873903
1.142007 -1.4555866 0.59670335 -0.46670222 0.2678258 -0.025341524 -2.7441518 -0.3503075
0.9703841 -0.23713702 1.2183515 -0.16245215 -0.19257894 1.4166325 -1.4562284 3.3609183
0.5770902 -0.5034772 -1.4845017 -1.3438392 -0.1955615 -0.10286554 -0.14695947 -0.09110814
0.97932726 0.37997097 0.43144506 -1.7469604 -0.33915263 0.5757222 0.039773796 -0.008583655
2.7834735 -2.609002 3.0484953 -2.8941693 -2.194683 -0.13386016 0.3886427 -5.2151413
-2.1417878 0.8162454 0.1753074 1.0394381 0.94613576 1.0880648 -1.192534 0.920652
0.033681344 0.808775 0.94559383 -0.5013272 -0.15856361 -0.42183787 0.37552366 1.4632633
00000000: d04e af3d c9e4 bbbf b290 22bf f6cb c33f
00000010: 3a5b 213c 8a31 09c0 aec0 01c0 875a 16bf
00000020: 40ce 4140 dda1 1b3f 36bd aa3f e275 e03f
00000030: 4086 f33c 0ca1 f3bd cffd 69bf d30a fa3d
00000040: 26af 363e 6731 4fbf 5f2a 17bf fd1b 453f
00000050: abb0 87bf aefb 16bf 71f9 0dbf 6171 0540
00000060: 0764 d43f a382 6c40 6123 82bf 999d 1bbf
00000070: f143 8d3f ecca 5dbe 7aac 9f3d 900c 8b3f
00000080: 46c3 763e 8a26 7ebe d36b 633e a5be e7be
00000090: 55d8 4d3f d7c7 3e3f 79eb 17bf 73ef bb3e
000000a0: 3b9c b1bf 5235 3440 cc10 c4bc 33f6 ac3e
000000b0: 8f14 cebf 28ea 8ebf fc1e 6e3f 253f b93f
000000c0: 9010 c9bd 2527 ef3e 6fb3 49c0 1eea b83f
000000d0: 1df1 123f 6e22 a03f 3b3f 00be bd38 6d3f
000000e0: 4cab 82be a451 46be fc9e f03d 3e01 543f
000000f0: cf84 66c0 f022 f03e 4145 b63f e1e2 b3bf
00000100: c5c7 683f 1217 06be c374 08c0 59a7 1bbf
00000110: ad50 6740 d963 b23e cd70 93bf 30b3 ba3f
00000120: 5b7d 96bf 2321 4a3e 4f02 eebf 4b3a 28c0
00000130: 067c bebf a466 2abf 003d 25bf b574 d73f
00000140: 12c1 123e 4dbf bfbe f360 c03f de52 4d3e
00000150: 3175 b93f e91e 8fbf d553 b03f 845b cf3e
00000160: e2a4 30c0 1314 a1bf 849b fdbd ae41 9d3f
00000170: e4ec 8abe 2213 d33d c94f b03f 0baa c4bf
00000180: 409a 733d 08d1 0e3f 144d ca3f 70b9 acbe
00000190: 9468 793f 63da b9bf eaaf b7bf 25a7 d1bf
000001a0: 7616 d6be bbd9 803f 9fdc 40c0 5da2 90be
000001b0: c9f0 4f40 00b5 2540 88a6 c8bd 3a66 4bc0
000001c0: 3028 2140 853f 6c3e 0b67 633f 7946 413f
000001d0: f7c8 323f 5113 7540 4432 6abf 903a 24bf
000001e0: e5e9 89bf 0e12 9bbd ba87 8e3f 3dbb 5fbe
000001f0: d1bd ac39 c901 fdbe 280e 47bf 03fe 01bf
00000200: 2a6f f33f 3dd8 03c0 c68e 8c3f e531 7e40
00000210: ee69 a53f f958 09c0 522b 97bf b439 57c0
00000220: 8831 5c3f cfb6 5d3f 72d3 49bf ed1a f13f
00000230: f3c0 2740 1550 a3be c7d5 53c0 3a98 51bf
00000240: 5f53 9d40 85ca b43f 840c dcbe 5e30 0b3f
00000250: 58cf 113f dd33 b7bf 85d4 0740 c811 373d
00000260: 56a7 92bf 49c5 12bf 812c bf3f 12ed e7bf
00000270: cf8a cb3e 8a26 45c0 739c 933c f2e9 943e
00000280: e90d 9cbd 9014 20bf 2b27 a5bf c70f 773f
00000290: d704 663e 3850 393f 6dbf 443f 2b50 953e
000002a0: b299 85bf 48dd ba3f 64aa d43f 14f9 e6bf
000002b0: 3910 71be 1259 88be ad1d 0c3f 5e6b 0fbe
000002c0: 44ac 653f e145 28bf 3407 a33f 5601 bc3f
000002d0: d850 dc3f f346 f23f 6ec5 913f 622a 29bf
000002e0: fd80 be3f e6ef a63f af4e 29bf 55b4 7b3f
000002f0: f45d 50bf 561e 3dbf 10e7 b03f 8267 4fbf
00000300: 3eaf ee3f ee22 103e e309 ce3f 3ba7 a9bf
00000310: fa62 cabf bbad 2b3d 1191 19c0 d0f8 2f3f
00000320: 492d 923f a950 babf 8dc1 183f 98f3 eebe
00000330: 7720 893e 0799 cfbc 2fa0 2fc0 815b b3be
00000340: 186b 783f 0cd4 72be f1f2 9b3f db59 26be
00000350: 6a33 45be 3754 b53f b165 babf 4919 5740
00000360: 2fbc 133f e2e3 00bf 2704 bebf ec02 acbf
00000370: 4641 48be 2bab d2bd 8b7c 16be e896 babd
00000380: 31b5 7a3f 8e8b c23e 5ee6 dc3e 669c dfbf
00000390: 6aa5 adbe 8862 133f d9e9 223d 75a2 0cbc
000003a0: 6e24 3240 e4f9 26c0 8c1a 4340 123a 39c0
000003b0: b075 0cc0 a312 09be 2dfc c63e 70e2 a6c0
000003c0: 0d13 09c0 75f5 503f c883 333e 4f0c 853f
000003d0: f435 723f b545 8b3f f4a4 98bf d9af 6b3f
000003e0: 73f5 093d e10b 4f3f 7012 723f fb56 00bf
000003f0: 805e 22be 22fb d7be a344 c03e 364c bb3f

0.bias f4 [2]
0.2122134 -0.2596338
00000000: 784e 593e b9ee 84be
