optima/checkpoints/qqp_prompt.pt (torch, 419359 bytes, 3 tensors)

unshared_soft_embeds f4 [100, 1024]
0	0xc1cc6a8d	-25.552027
1	0x4190e087	18.109632
2	0xc128d02a	-10.550821
3	0xc1c0770b	-24.058126
4	0x410e33a0	8.887604
5	0xc10b7ad9	-8.717492
6	0x4126614e	10.398756
7	0xc0b570ac	-5.670004
8	0x411d557c	9.83337
9	0x4081adc3	4.052461
10	0x41a11289	20.13405
11	0x4039a884	2.9009104
12	0xc15fd644	-13.989811
13	0x40969481	4.705628
14	0xc1a2e052	-20.359531
15	0xc09e8ace	-4.954444
16	0x422f50b6	43.82882
17	0x422ac593	42.692944
18	0x3dc3d5f4	0.09562293
19	0xc0dd71a1	-6.9201207
20	0xc1a5acdd	-20.709406
21	0x41b77936	22.934185
22	0xc17adea6	-15.679358
23	0xc1abee25	-21.491282
24	0x40dc3fdd	6.882796
25	0x41f8b4fc	31.088371
26	0xc1c8f1a7	-25.117994
27	0x40083094	2.127965
28	0xc1bbf77a	-23.495838
29	0x41f68e55	30.819498
30	0xc204e141	-33.219975
31	0x40ff555e	7.979171
32	0xc1b9ae78	-23.21019
33	0xc1a50340	-20.626587
34	0xc0998cd9	-4.7984433
35	0x410c0f3d	8.75372
36	0xc0a50c39	-5.157742
37	0x40f589ea	7.673085
38	0x41a3969d	20.448542
39	0x41357d02	11.3430195
40	0xc022d1be	-2.5440516
41	0xc03ba92b	-2.9322002
42	0xc0bc7922	-5.8897867
43	0x40b137cf	5.5380626
44	0x40892f60	4.287033
45	0x414aad18	12.667259
46	0x4183d93e	16.481075
47	0x3f8d8c95	1.1058527
48	0xbffcbd5e	-1.974529
49	0xc03e3c18	-2.9724178
50	0x40b6a267	5.7073245
51	0x3f806565	1.0030943
52	0x413e39f9	11.8891535
53	0xc173e1b6	-15.242605
54	0x41c731de	24.89935
55	0x40ed3ec5	7.4139123
56	0xc150952c	-13.036419
57	0x416a599f	14.64688
58	0x3fcc59c6	1.5964897
59	0x41a5651c	20.67437
60	0x416ac85b	14.673915
61	0xc14f993f	-12.974914
62	0xc1e41ed5	-28.515055
63	0x41b1f0a5	22.242502
64	0x41a2785f	20.308775
65	0x4037a914	2.8696947
66	0x40f3e97d	7.622252
67	0x40bc59a3	5.885942
68	0xc189f89e	-17.246395
69	0xc07175a8	-3.7728062
70	0x4001421e	2.0196605
71	0x4087f884	4.2490864
72	0xc03a3589	-2.9095175
73	0xc1e0e1d0	-28.11026
74	0xbfb19283	-1.3872837
75	0xc20184fb	-32.379864
76	0x418985fa	17.190418
77	0x41840e9e	16.507137
78	0x40ce7cc7	6.4527316
79	0xbee449c3	-0.44587526
80	0x40ea42cd	7.3206544
81	0x4104cfd5	8.30074
82	0xc1a5e004	-20.734383
83	0xbf792c57	-0.9733328
84	0x41a917cb	21.136618
85	0x418f15ed	17.885706
86	0x40b1c829	5.5556836
87	0x3f9fa859	1.2473251
88	0xc14d50a7	-12.8321905
89	0x418e52d9	17.790453
90	0xc1931d05	-18.38917
91	0x40f99f6d	7.800711
92	0x40a6537b	5.1976905
93	0x40d438d7	6.6319385
94	0x3ecf52b7	0.40492794
95	0xc0a8921e	-5.2678366
96	0xc10d0801	-8.814454
97	0x417765ed	15.462384
98	0x41ba5d17	23.295454
99	0x415565d2	13.337358
100	0xc19fd60b	-19.979513
101	0x40f54380	7.6644897
102	0xc0113e32	-2.269421
103	0x41c618b4	24.762062
104	0xc1ac226f	-21.516813
105	0x41272242	10.445864
106	0x3fc4ab28	1.5364733
107	0xc1768340	-15.407043
108	0xc024b6e5	-2.573663
109	0x41b89e2a	23.077229
110	0xc16c105e	-14.753996
111	0xc05e8eb1	-3.4774592
112	0xc0ece3cd	-7.4028077
113	0xc0d3585e	-6.604537
114	0x416ae0f9	14.679925
115	0xc04d383f	-3.206558
116	0xc11bf40b	-9.747081
117	0xbff7b3b5	-1.9351717
118	0x40b3512e	5.6036596
119	0xc1064d6b	-8.393901
120	0xc1f0b133	-30.086523
121	0x41138f12	9.222429
122	0xbf5a10dc	-0.85181975
123	0x41b42af1	22.520967
124	0x42446c95	49.106037
125	0xc1407e1d	-12.030789
126	0x41fb45f1	31.409151
127	0x415164cd	13.08711
128	0xc162ef6f	-14.183455
129	0xc1817b46	-16.185192
130	0x3f55aad3	0.8346378
131	0x40e6a7f4	7.208002
132	0xc195f6d2	-18.745518
133	0xc118e537	-9.555961
134	0xc0b6ac95	-5.708567
135	0xbf2b1cb8	-0.66840696
136	0xc20a28d0	-34.539856
137	0xbffc5705	-1.9714056
138	0xc249c31e	-50.440544
139	0x41195650	9.583572
140	0x408fbb5b	4.4916205
141	0xc163d1a4	-14.238682
142	0xbfcf860c	-1.6212783
143	0x41344cbc	11.268734
144	0x41d65b2f	26.794523
145	0xc1a46cc5	-20.55311
146	0xbf325e9d	-0.6967562
147	0xc1e76a6f	-28.92697
148	0xc10fb818	-8.982445
149	0x410022ea	8.008524
150	0x41fb8592	31.44022
151	0x41d16882	26.17603
152	0x40ad2744	5.411043
153	0x41856118	16.67241
154	0x40ff8776	7.9852858
155	0x42466664	49.59999
156	0x4083982d	4.112326
157	0xc1937430	-18.431732
158	0xc1374512	-11.454363
159	0xc13e987d	-11.912229
160	0x41c68ebb	24.819693
161	0xc0d93328	-6.7874947
162	0xc1c8eed0	-25.116608
163	0x40ba90a4	5.8301563
164	0x403836b6	2.8783393
165	0x412aaeb7	10.667655
166	0xc0d9411e	-6.789199
167	0x40afdefb	5.4959693
168	0x40b32728	5.59853
169	0xc217a1fc	-37.908188
170	0xc0c79354	-6.2367344
171	0x416caf44	14.792789
172	0xc0afa94f	-5.4894176
173	0x4011b218	2.276495
174	0x3f094001	0.5361329
175	0x3e9323ad	0.28738156
176	0x40aefa7c	5.4680767
177	0xc0796bde	-3.8972087
178	0xc1855fe3	-16.67182
179	0xc1acb4bc	-21.58825
180	0x41151f83	9.320193
181	0x40df4b88	6.97797
182	0x40ab77fe	5.3583975
183	0xc185154d	-16.6354
184	0x41c6e1b2	24.860203
185	0xc0bc79bd	-5.8898606
186	0x410d35c8	8.82563
187	0xc16f04b6	-14.93865
188	0x4184138d	16.509546
189	0xc0dfc5d9	-6.9929013
190	0xc0435072	-3.051785
191	0xc0e3f9cc	-7.124243
192	0x41be71b3	23.805517
193	0x40e9be2c	7.3044643
194	0xc20d9b5c	-35.40172
195	0xc183f4b9	-16.494493
196	0x40dd9e6e	6.9255896
197	0x40fbdcbc	7.870695
198	0x4139550a	11.5832615
199	0xc032aef6	-2.7919288
200	0xc20767fe	-33.851555
201	0xc182f7c9	-16.370989
202	0x41ac7afb	21.56005
203	0xc0c50e0c	-6.1579647
204	0x41f71f27	30.890211
205	0x40f69bb9	7.706509
206	0x40645108	3.5674458
207	0x423cbf67	47.186916
208	0xc1be87bc	-23.816277
209	0x41aae66d	21.362513
210	0x409e8e30	4.954857
211	0xc23a5ccc	-46.590622
212	0xc1d6e830	-26.863373
213	0x410f566e	8.958601
214	0x41d39f05	26.452646
215	0xc14d81ea	-12.844217
216	0xc0795a85	-3.8961499
217	0x3ece9303	0.40346536
218	0xc12b6c8d	-10.714002
219	0xc15a0e90	-13.628555
220	0x411f046d	9.9385805
221	0x3ed2bd75	0.4116017
222	0x3f5cc53b	0.8623845
223	0x418c0402	17.501957
224	0x40c62948	6.192539
225	0xc196f328	-18.868729
226	0x417cc4a4	15.798008
227	0x412309ef	10.189925
228	0x41b23e55	22.280436
229	0xc15c9eb4	-13.788746
230	0x41119f7e	9.1014385
231	0xc12e7e66	-10.905859
232	0xbff24c0d	-1.8929459
233	0x419da369	19.70479
234	0xc1e85fdf	-29.046812
235	0xc0c7f5c5	-6.248751
236	0x3fc55c4e	1.5418794
237	0x415bdff3	13.742175
238	0x4155f926	13.373327
239	0xc063bccd	-3.5583985
240	0xc0c17d96	-6.0465803
241	0x40ea9274	7.3303776
242	0x40979a7d	4.7376084
243	0x418ad75e	17.35516
244	0xc108476f	-8.51744
245	0xbf8de2b6	-1.1084812
246	0xc03b523d	-2.9268944
247	0x414e730a	12.903086
248	0x419564ff	18.674314
249	0xc1d7be8a	-26.968037
250	0xc1a02a43	-20.020636
251	0xc192ff72	-18.37473
252	0xc013e0d2	-2.310597
253	0x410e3303	8.887454
254	0x42043279	33.04929
255	0x3fd1e14f	1.6396884

0.weight f4 [2, 1024]
0	0x3ec0105c	0.3751248
1	0x3ef1916d	0.47181264
2	0xbfe76ff5	-1.8081042
3	0xbfd71046	-1.6801841
4	0x3fa6be8d	1.3026901
5	0xbf18d34e	-0.59697425
6	0x3fa299ef	1.2703227
7	0x3e6df330	0.232373
8	0xc035a409	-2.838137
9	0xbc486e12	-0.012233274
10	0xbedc1e03	-0.42991647
11	0x3ff0c445	1.8809897
12	0xbfd4d0f5	-1.6626269
13	0xbd9488f6	-0.07252686
14	0x4018f40f	2.3898962
15	0xbe513158	-0.2042898
16	0x3f54635a	0.829641
17	0x4028ff3e	2.6405787
18	0x3f91c466	1.1388061
19	0xc00998ff	-2.1499631
20	0x400d2cfe	2.205871
21	0xbe900417	-0.2812812
22	0x3fe78ac5	1.8089224
23	0xc02aec1c	-2.670661
24	0xbf61929e	-0.88114345
25	0xc0325c99	-2.7869017
26	0x40537549	3.3040335
27	0x3f68c24e	0.90921485
28	0x3eec83ab	0.46194205
29	0xbf8086e7	-1.0041169
30	0xbf411376	-0.7542032
31	0x3fac3956	1.3454998
32	0xbf59ba83	-0.8505022
33	0xbf7a06fb	-0.976669
34	0xc051a8d3	-3.2759292
35	0xbf10df07	-0.5659031
36	0xbf55ea0b	-0.83560246
37	0xbf8754ed	-1.0572792
38	0x3f23d2a1	0.6399327
39	0xbf2cdfad	-0.675288
40	0x3fc38233	1.5274109
41	0xbfc71bbd	-1.555534
42	0xbe2e5a4e	-0.17026636
43	0x3f24d23b	0.64383286
44	0x3fb19a30	1.3875179
45	0x3f2a78d1	0.665906
46	0xbf651285	-0.89481384
47	0x3f0f99bf	0.5609397
48	0x3fe599a5	1.7937514
49	0x3faac257	1.3340558
50	0x4025fce9	2.5935614
51	0xbff35991	-1.9011708
52	0xbdc4550d	-0.09586535
53	0xbf0f9760	-0.56090355
54	0xbe980869	-0.29693916
55	0xbfff48eb	-1.9944128
56	0xbf971c96	-1.1805599
57	0xbe763f5a	-0.24047604
58	0x3ebc0bc3	0.36727723
59	0xc01ae70b	-2.4203517
60	0x4036c9f7	2.856077
61	0x3e21a9b5	0.15787394
62	0xbfe0e401	-1.7569581
63	0x403c5b7d	2.943084
64	0xbf39be84	-0.7255633
65	0x3cffb710	0.03121522
66	0x3f6085d2	0.87704194
67	0x3faf65b7	1.3702916
68	0xc09065db	-4.5124335
69	0xbfed267d	-1.8527371
70	0x3f99bb63	1.2010311
71	0xbf057431	-0.5213042
72	0xbf034f87	-0.51293224
73	0x3ecb7802	0.39739996
74	0x404b34f7	3.1751077
75	0x401869fe	2.3814692
76	0x3e594b44	0.21220118
77	0x3ee0bbb5	0.4389321
78	0x3efaa334	0.4895264
79	0xc01cf0de	-2.4522014
80	0x3f89f03d	1.077644
81	0x3e961da5	0.29319492
82	0xbf880509	-1.0626537
83	0xbf788212	-0.9707347
84	0xbfe4530a	-1.7837842
85	0x3edcd21c	0.4312905
86	0x3edb1aac	0.42793787
87	0x3f620fe0	0.88305473
88	0x3fe88d7c	1.8168178
89	0x3e1a566c	0.1507203
90	0xbebba80c	-0.36651647
91	0xc05ac950	-3.4185371
92	0x3f3f015c	0.7461145
93	0xbe1c27b1	-0.15249516
94	0xbf1b95b9	-0.60775334
95	0x3ee0e7a2	0.43926722
96	0x3f4e5e71	0.80612856
97	0x3f971f4a	1.1806424
98	0xbf81b7d3	-1.0134224
99	0x3f4b1eff	0.7934417
100	0xbf67988e	-0.90467155
101	0x3fb10f78	1.3832846
102	0x3f824533	1.0177368
103	0xbdc03f76	-0.09387104
104	0xbe450002	-0.19238284
105	0xbf01d5e7	-0.50717014
106	0x3f93f0de	1.1557882
107	0xbd122c82	-0.035686977
108	0xc01a4dc7	-2.4109972
109	0xbf094d83	-0.536339
110	0x3f6c3033	0.92261046
111	0x404c6cad	3.194133
112	0x3e4dc46c	0.2009446
113	0xc008099b	-2.1255863
114	0xbfd7e3d8	-1.6866407
115	0xbf3e2c16	-0.7428602
116	0x3f0a3f11	0.5400248
117	0xc047c6c8	-3.1215076
118	0x3eba25b1	0.3635688
119	0xbf1cb7e4	-0.61218095
120	0x3f6978c6	0.9119991
121	0x3f43a570	0.7642431
122	0xc0292e89	-2.6434653
123	0x3e85d32e	0.2613768
124	0x3f633bfa	0.8876339
125	0x3ddf0eba	0.10891481
126	0x3edc35a1	0.43009666
127	0xbf2dfa81	-0.67960364
128	0xc0016197	-2.0215814
129	0x4073322d	3.7999375
130	0xc01d465e	-2.4574199
131	0xc0640823	-3.5629966
132	0x3f882399	1.0635864
133	0x4012b197	2.2920892
134	0x3f8df9cc	1.1091857
135	0x406dfb0a	3.7184472
136	0xbf00f21e	-0.5036944
137	0xbfba9692	-1.45772
138	0x3faa52f9	1.3306571
139	0xbfb692a8	-1.4263506
140	0xbfe3dcb1	-1.7801725
141	0x3fff6785	1.9953467
142	0x4036a5b0	2.8538628
143	0x3e2406dd	0.16018243
144	0xc0854258	-4.1643486
145	0xbd990f7a	-0.07473655
146	0xbe9ce4a6	-0.30643195
147	0x3ec865a3	0.39140043
148	0xbe4781e2	-0.1948314
149	0x3ffa4cdc	1.9554706
150	0xc019236d	-2.3927872
151	0x3f5bae9f	0.85813326
152	0x3e5add8a	0.21373573
153	0x3fe55efe	1.7919614
154	0x3fc50be5	1.5394255
155	0x3fe75850	1.8073826
156	0xbe52409b	-0.20532458
157	0x401f6b5f	2.4909284
158	0x3c954fd5	0.018226543
159	0xc036816e	-2.8516498
160	0x3f39878a	0.7247244
161	0x3fbae4e8	1.4601107
162	0x3f84e8b6	1.0383518
163	0x3e8f6192	0.28004128
164	0xbe903c68	-0.28171086
165	0xbfe43772	-1.782942
166	0xc05515f3	-3.3294647
167	0x3f98a161	1.1924249
168	0xbad9dcf0	-0.0016621631
169	0xc0369f18	-2.8534603
170	0xbf3951d5	-0.7239049
171	0x3e6dbe3c	0.232171
172	0x3f86b554	1.0524087
173	0x4003551b	2.0520694
174	0x3f7a9173	0.9787819
175	0xbedb1f15	-0.4279715
176	0xc01f2f32	-2.4872556
177	0xbf79cbe8	-0.9757676
178	0xc02dc71f	-2.7152784
179	0x3f891643	1.0709919
180	0xbfb5dc12	-1.4207785
181	0xc04be68d	-3.1859467
182	0xbfea3a83	-1.8299106
183	0x3fa89cf7	1.3172902
184	0xbfbefba8	-1.4920549
185	0xc066ec60	-3.6081772
186	0x3feb0a4d	1.8362519
187	0x3f23239a	0.637262
188	0x3dea4292	0.114384785
189	0x3fceeaf8	1.6165457
190	0xbec5c178	-0.38624167
191	0x3fb75c15	1.4324976
192	0xc0093a8e	-2.144199
193	0xbf4f0a9d	-0.8087557
194	0xbfddf60a	-1.734071
195	0x40027d2e	2.0388904
196	0x3fe75288	1.8072062
197	0xbdbf9b39	-0.09355778
198	0x4032b75a	2.792441
199	0xc0098a74	-2.1490755
200	0xbf19a589	-0.6001821
201	0x407ce7c9	3.951647
202	0xbebcf2c7	-0.36903974
203	0xbfa064ff	-1.2530822
204	0xc014350c	-2.3157377
205	0xbf4b753d	-0.79475766
206	0x4034ac17	2.8230035
207	0xbef0efc9	-0.47057942
208	0xbe91befd	-0.28466025
209	0x3d8ccac1	0.0687461
210	0xbf9ba8e5	-1.2160918
211	0x3fbe88c4	1.4885488
212	0x3f16f459	0.58966595
213	0x3da23b75	0.07921497
214	0x3eaaa2d1	0.33327344
215	0xc04184b4	-3.0237246
216	0xbe66c584	-0.22536284
217	0xbf831374	-1.0240312
218	0x3fe45b8e	1.784044
219	0x3f81cf79	1.0141441
220	0xbe2abb09	-0.16672911
221	0x3f8d11d1	1.1021062
222	0x3f85ec2c	1.0462699
223	0x3ecd3fea	0.40087825
224	0xbf80dd00	-1.0067444
225	0xbde1bc23	-0.11022212
226	0x3e76d795	0.24105676
227	0x3f78900f	0.97094816
228	0xbf047fb0	-0.51757336
229	0xbf92f6d0	-1.1481571
230	0xbfb556a2	-1.4167063
231	0x402b49bc	2.6763754
232	0xc0306aa5	-2.756509
233	0x3fc16d11	1.511141
234	0xbfb9b43c	-1.4508128
235	0x3f9f8962	1.2463801
236	0x3fb71b72	1.4305251
237	0xbfc3d562	-1.5299494
238	0x405fc34a	3.4962945
239	0x40ab5a02	5.3547373
240	0x400eae70	2.2293968
241	0x3f9b9186	1.2153785
242	0xbe8e971d	-0.27849665
243	0x3fcec05f	1.6152457
244	0xbf97fc38	-1.1873846
245	0xbf5043e2	-0.8135358
246	0x3f319d55	0.69380695
247	0x3fbd627f	1.4795684
248	0x3f9acecd	1.209436
249	0xbcfe053c	-0.031008355
250	0x3fea1b53	1.8289589
251	0xbc1dde19	-0.009635472
252	0x4005d112	2.0908856
253	0x3f75163e	0.95737064
254	0xbf8e0eda	-1.1098282
255	0xbffe1a25	-1.9851729

0.bias f4 [2]
0	0x4018afb1	2.3857234
1	0xc01bc6ce	-2.434009
