optima/checkpoints/snli_prompt.pt (torch, 419359 bytes, 3 tensors)

unshared_soft_embeds f4 [100, 1024]
-96.523705 24.232433 -32.576496 -14.485475 15.680601 -4.6545305 10.480179 -15.238793
63.99079 -19.701567 -45.982403 -21.047468 9.880704 -44.306767 -21.71174 45.324688
-37.450066 -27.167444 -42.498436 -13.171133 74.61017 -53.00416 -8.818249 -9.580507
2.1813648 92.93113 -40.33862 -3.2288256 -13.045642 6.22131 26.433645 -49.90812
-5.645123 37.88541 -26.792307 -4.7430725 44.41482 13.775688 -31.054901 -7.9144993
-0.5344558 -12.687133 -44.634464 6.4025106 -23.824793 -29.415922 22.470425 -31.494946
17.640398 20.72011 -29.728556 8.85455 -55.337345 -7.565472 24.168465 -29.105183
-7.867946 6.63843 37.83402 20.766771 -70.067726 -13.657595 4.058272 -50.172688
8.397871 -41.02508 -16.066397 24.258846 -4.4998 71.322845 0.9544396 39.827198
-29.77308 -70.74692 56.548943 -6.8055906 17.081413 8.220923 -14.350302 10.16678
-17.336098 -25.486778 62.26449 9.197078 -10.397231 -9.360326 22.63269 -28.963171
-86.8458 8.371685 -6.0701976 -20.790844 25.042517 2.0605009 4.9534335 -5.467674
-62.959423 3.2184813 21.825272 30.829714 -10.115992 -29.893677 40.933823 24.517065
7.2869563 -45.38903 -28.7782 37.711994 4.7158737 -24.30211 -47.75317 -51.69902
21.521017 5.2621646 8.984576 -13.003619 -17.267202 -11.092568 -12.953635 -25.857689
18.014042 52.875072 30.85019 0.63343614 41.49503 29.30436 46.077778 39.965446
-40.188942 -31.753883 -16.364141 -34.32738 7.3029723 9.347233 -19.772804 -13.71934
8.817599 35.11785 -53.76784 -13.267894 10.43118 -61.385662 15.557493 3.0011437
-1.1562071 14.289501 23.415804 4.7793374 -14.368093 11.999793 -13.107684 -32.366623
-9.170661 27.131771 25.293478 3.4442267 2.1233115 -72.55273 1.0599368 -58.46498
29.094833 72.033615 27.74581 -6.4465404 33.145023 7.4563174 -1.7950808 2.6339831
-0.17024662 0.6490311 -0.5375377 -33.99947 3.7398207 -36.839664 -46.89187 -27.922302
-26.20568 -2.5961497 13.401713 9.052287 20.042595 11.364008 40.209755 3.8169868
-50.157013 12.85042 -35.197647 17.626925 -10.836044 -21.558578 -43.681667 -17.416883
28.844841 3.860919 -11.978714 -18.165415 53.937202 1.1379155 18.278084 -21.491116
28.31422 -14.342652 -12.119943 14.71134 38.379707 -12.747193 11.746914 -3.0849419
35.098488 51.72163 50.33509 -29.694918 -4.5418515 -52.8143 -3.9248884 -33.649895
-11.182222 31.962877 -46.71837 24.092113 1.2239231 28.647778 2.5154846 10.02295
-10.852627 -25.46813 3.1027856 -17.910269 41.338463 -55.725597 21.418993 71.95497
-35.65087 2.4457772 40.46342 -41.98662 26.066944 105.75372 45.98689 2.3729515
19.06358 -17.743376 -14.216884 -33.34421 32.51957 2.7035766 47.71066 13.276566
36.367466 68.18079 -2.765373 -43.2408 38.579533 -11.183269 -3.6075833 -50.063465
00000000: 230c c1c2 06dc c141 554e 02c2 81c4 67c1
00000010: bee3 7a41 eaf1 94c0 d0ae 2741 19d2 73c1
00000020: 92f6 7f42 cf9c 9dc1 fbed 37c2 3761 a8c1
00000030: 5d17 1e41 213a 31c2 a5b1 adc1 7b4c 3542
00000040: decc 15c2 ed56 d9c1 66fe 29c2 f6bc 52c1
00000050: 6838 9542 4304 54c2 8c17 0dc1 c249 19c1
00000060: 7b9b 0b40 bddc b942 bf5a 21c2 14a5 4ec0
00000070: f3ba 50c1 f914 c740 1b78 d341 eaa1 47c2
00000080: d9a4 b4c0 a98a 1742 a556 d6c1 40c7 97c0
00000090: c7a8 3142 3869 5c41 7070 f8c1 9443 fdc0
000000a0: 18d2 08bf 7ffe 4ac1 b189 32c2 5ee1 cc40
000000b0: 2d99 bec1 cf53 ebc1 6ec3 b341 a6f5 fbc1
000000c0: 891f 8d41 c9c2 a541 15d4 edc1 3dac 0d41
000000d0: 7159 5dc2 5918 f2c0 0459 c141 6ad7 e8c1
000000e0: 37c6 fbc0 056e d440 0956 1742 5922 a641
000000f0: ad22 8cc2 8285 5ac1 5ddd 8140 d5b0 48c2
00000100: ae5d 0641 af19 24c2 fb87 80c1 1e12 c241
00000110: 5dfe 8fc0 4ca5 8e42 2756 743f 0d4f 1f42
00000120: 452f eec1 6c7e 8dc2 1e32 6242 66c7 d9c0
00000130: bca6 8841 e788 0341 d69a 65c1 22ab 2241
00000140: 54b0 8ac1 ece4 cbc1 d60e 7942 3b27 1341
00000150: 0f5b 26c1 e5c3 15c1 c00f b541 93b4 e7c1
00000160: 0db1 adc2 6cf2 0541 0f3f c2c0 a653 a6c1
00000170: 1357 c841 3fdf 0340 8782 9e40 2ff7 aec0
00000180: 73d6 7bc2 99fb 4d40 289a ae41 41a3 f641
00000190: 1adb 21c1 4026 efc1 3cbc 2342 f322 c441
000001a0: bf2e e940 5e8e 35c2 c139 e6c1 15d9 1642
000001b0: 70e8 9640 b96a c2c1 3f03 3fc2 cccb 4ec2
000001c0: 0b2b ac41 a763 a840 d3c0 0f41 d30e 50c1
000001d0: 3b23 8ac1 297b 31c1 1742 4fc1 8cdc cec1
000001e0: c21c 9041 1380 5342 30cd f641 df28 223f
000001f0: e9fa 2542 546f ea41 a54f 3842 9edc 1f42
00000200: 7ac1 20c2 f407 fec1 c3e9 82c1 3d4f 09c2
00000210: f3b1 e940 448e 1541 b42e 9ec1 6b82 5bc1
00000220: e314 0d41 ae78 0c42 4512 57c2 4b49 54c1
00000230: 1de6 2641 eb8a 75c2 7eeb 7841 bd12 4040
00000240: 98fe 93bf cca1 6441 9153 bb41 55f0 9840
00000250: b5e3 65c1 27ff 3f41 13b9 51c1 6c77 01c2
00000260: 07bb 12c1 de0d d941 0b59 ca41 366e 5c40
00000270: 56e4 0740 ff1a 91c2 02ac 873f 24dc 69c2
00000280: 38c2 e841 3611 9042 6bf7 dd41 0f4a cec0
00000290: 8194 0442 279a ee40 35c5 e5bf 2e93 2840
000002a0: 2155 2ebe e726 263f 129c 09bf 75ff 07c2
000002b0: 3959 6f40 d15b 13c2 4691 3bc2 e060 dfc1
000002c0: 3ca5 d1c1 5127 26c0 6b6d 5641 2bd6 1041
000002d0: 3c57 a041 fad2 3541 cad6 2042 8349 7440
000002e0: c8a0 48c2 529b 4d41 64ca 0cc2 f103 8d41
000002f0: 7060 2dc1 f877 acc1 07ba 2ec2 c755 8bc1
00000300: 3cc2 e641 4c19 7740 d0a8 3fc1 c552 91c1
00000310: b2bf 5742 37a7 913f 8439 9241 ceed abc1
00000320: 8683 e241 817b 65c1 49eb 41c1 a661 6b41
00000330: d284 1942 81f4 4bc1 5cf3 3b41 b06f 45c0
00000340: da64 0c42 f3e2 4e42 2257 4942 318f edc1
00000350: d956 91c0 d841 53c2 5f31 7bc0 7e99 06c2
00000360: 62ea 32c1 f9b3 ff41 9cdf 3ac2 a6bc c041
00000370: 83a9 9c3f a62e e541 b3fd 2040 015e 2041
00000380: 5ca4 2dc1 bbbe cbc1 0a94 4640 3b48 8fc1
00000390: 965a 2542 03e7 5ec2 195a ab41 f2e8 8f42
000003a0: 7e9a 0ec2 9d87 1c40 8bda 2142 4df2 27c2
000003b0: 1a89 d041 e881 d342 93f2 3742 70de 1740
000003c0: 3682 9841 6ff2 8dc1 5b78 63c1 7960 05c2
000003d0: 0a14 0242 6607 2d40 b7d7 3e42 d06c 5441
000003e0: 4978 1142 915c 8842 dffb 30c0 94f6 2cc2
000003f0: 7151 1a42 abee 32c1 a5e2 66c0 fd40 48c2

0.weight f4 [2, 1024]
-1.069515 -0.61796814 -1.7060523 -0.45261222 -0.19559313 -0.39441884 1.0326493 -0.23874909
-0.43254384 1.2504727 -0.66459864 0.6953267 0.38287276 0.28727606 0.020608356 -0.033798024
0.023351539 -0.44525272 0.32445368 1.0868303 -1.6293432 -0.1386826 -0.63176787 -1.0543162
1.244867 0.62881374 1.1193098 -0.6831671 1.2027617 -1.8705728 -0.83756214 1.4641877
-0.54162353 -0.46924722 2.145875 -2.0409725 -0.93825 0.21444122 -0.60583997 -0.32620606
0.6642264 -1.0058054 -0.014294988 0.40620622 0.18223107 -0.75442106 0.48796812 -0.28563088
-0.13269688 2.7433221 1.9166303 -0.7266297 0.66561437 -1.1994643 -1.2642021 0.82053745
0.2981239 -0.1857715 -1.0962666 0.5821573 0.5634224 0.4201989 -0.94750774 -0.3974025
-0.9743466 -1.8918575 1.3537054 -1.5994788 -0.5241435 -1.8849294 1.6647339 -1.429383
1.0038058 -0.6565356 -1.0134321 -0.29838935 -0.14975871 -0.43619397 1.895455 -2.214123
-0.019627677 -0.19869012 -0.53997046 0.09145604 -1.5087106 -0.9430671 -0.01944054 -1.9184923
0.5894226 -0.3707659 -1.5842129 -1.418063 0.4075724 0.4491052 -0.34268975 -1.081528
-2.279821 -1.7937689 0.12380749 2.3582783 0.26732603 -1.4330271 0.8455038 0.6181606
-0.14981309 0.72166884 -0.92097855 2.1498294 -1.115666 0.21005364 -0.055549722 -0.041835167
0.22872946 0.765574 -0.23058031 0.35638064 -0.3260806 -0.38954762 0.509346 -0.25427154
-0.48368382 -0.5242735 0.03641204 -0.48933667 -0.47240636 -1.0248657 -3.2839646 0.064859994
-0.63219595 0.22931466 0.67334145 -0.3646086 0.5653232 0.54361457 -0.8633683 1.3979287
0.31261182 1.1759101 -0.7804092 0.24606976 -1.3954276 0.36887348 -0.47295797 0.25440022
0.8406124 -0.6452859 -0.65562016 -0.29738718 0.6109495 -3.0234768 -0.20752169 0.84693956
1.3053674 0.016268639 -0.61865515 0.3624259 -0.9720629 0.27868074 0.0022685947 0.6635451
1.0426722 3.7824378 0.6030305 -0.058407523 -1.5686473 0.7498248 0.3307185 2.0439146
0.96271515 -0.399589 0.06391054 -0.427615 0.13700064 0.59105927 -1.0197535 -0.63894886
-0.5992312 2.5848372 -1.8970846 -2.0918243 1.2844024 -0.5948626 -0.65900224 -0.79918957
2.0088472 -1.9894916 -0.3410814 2.0539496 -0.79614335 1.1196616 1.2790822 -0.6296905
-1.3942807 0.22115129 -0.72011137 -1.1196979 0.6973605 -1.3622385 1.9202466 0.5687634
-0.07198617 0.09360583 0.9399237 -0.43164155 0.2139235 -1.5904001 -0.8811049 -0.34108692
-1.0239402 1.355704 -0.17083193 0.12642032 2.8593981 -0.01860007 -0.8269794 -0.5015017
0.23505136 0.15692893 -2.0276108 0.54699415 0.9567395 0.45730776 -0.69678146 0.4935456
0.6990024 -1.4863528 0.3640956 -0.043522276 -0.3320363 0.5051666 0.8477898 -0.35181826
0.28513592 1.5206548 0.68713176 0.047452576 -0.6502899 0.39948043 -0.045124535 -0.19084261
0.023461863 0.73887724 0.22620311 -0.028532 1.1291422 0.7534018 -0.15490158 -0.68850094
-2.9457228 -1.9306234 -0.93421733 -0.7069633 1.2808516 -0.5827163 -1.0799562 0.30199715
00000000: dee5 88bf 2933 1ebf ec5f dabf cabc e7be
00000010: 9149 48be 44f1 c9be da2d 843f a47a 74be
00000020: 6376 ddbe 7d0f a03f 2323 2abf ee00 323f
00000030: e607 c43e d915 933e dbd2 a83c cc6f 0abd
00000040: ba4b bf3c 2af8 e3be cb1e a63e 411d 8b3f
00000050: 518e d0bf d002 0ebe 8abb 21bf d5f3 86bf
00000060: cd57 9f3f f0f9 203f 8b45 8f3f 0ae4 2ebf
00000070: 18f4 993f ee6e efbf 796a 56bf 816a bb3f
00000080: d7a7 0abf 2c41 f0be 0456 0940 4b9f 02c0
00000090: 2731 70bf 7b96 5b3e 5418 1bbf 7b04 a7be
000000a0: be0a 2a3f 3bbe 80bf 8635 6abc 43fa cf3e
000000b0: c89a 3a3e bd21 41bf f5d6 f93e 363e 92be
000000c0: b1e1 07be 9792 2f40 2454 f53f 6704 3abf
000000d0: b465 2a3f 0c88 99bf 60d1 a1bf be0e 523f
000000e0: b2a3 983e e23a 3ebe 7752 8cbf 4308 153f
000000f0: 733c 103f 4f24 d73e de8f 72bf 5778 cbbe
00000100: c76e 79bf 6328 f2bf 3846 ad3f b9bb ccbf
00000110: 452e 06bf 5e45 f1bf 0016 d53f 06f6 b6bf
00000120: b57c 803f b812 28bf 25b8 81bf 7dc6 98be
00000130: 595a 19be d154 dfbe 459e f23f 31b4 0dc0
00000140: 39ca a0bc 6c75 4bbe 813b 0abf 4e4d bb3d
00000150: 6e1d c1bf d86c 71bf c441 9fbc 2891 f5bf
00000160: 66e4 163f 07d5 bdbe 7dc7 cabf 1783 b5bf
00000170: 54ad d03e 1ef1 e53e 0875 afbe 826f 8abf
00000180: 96e8 11c0 389a e5bf c88e fd3d 08ee 1640
00000190: f5de 883e 6f6d b7bf f072 583f c63f 1e3f
000001a0: 9a68 19be 4abf 383f 40c5 6bbf ce96 0940
000001b0: 25ce 8ebf 4d18 573e 1b88 63bd 5a5b 2bbd
000001c0: 0e38 6a3e a8fc 433f 3f1d 6cbe 8677 b63e
000001d0: 09f4 a6be c972 c7be 8064 023f e12f 82be
000001e0: 68a5 f7be ca36 06bf cb24 153d 568a fabe
000001f0: 3fdf f1be cd2e 83bf 7a2c 52c0 51d5 843d
00000200: 98d7 21bf 76d1 6a3e 1b60 2c3f faad babe
00000210: 05b9 103f 532a 0b3f b405 5dbf 54ef b23f
00000220: a80e a03e 3984 963f e6c8 47bf b6f9 7b3e
00000230: 5f9d b2bf fcdc bc3e 8c27 f2be bf40 823e
00000240: 6032 573f 7531 25bf b9d6 27bf 2243 98be
00000250: 3067 1c3f a580 41c0 9180 54be 08d1 583f
00000260: 4716 a73f cf45 853c 2f60 1ebf e38f b93e
00000270: 1dd9 78bf 3eaf 8e3e b4ac 143b 17de 293f
00000280: 4876 853f 7613 7240 3560 1a3f ba3c 6fbd
00000290: 6fc9 c8bf 85f4 3f3f ef53 a93e 7fcf 0240
000002a0: 8074 763f ee96 ccbe 87e3 823d 5af0 dabe
000002b0: e549 0c3e a94f 173f 4887 82bf 2792 23bf
000002c0: 3767 19bf f96d 2540 abd3 f2bf 73e0 05c0
000002d0: 4c67 a43f ea48 18bf 5fb4 28bf b097 4cbf
000002e0: f490 0040 a9a7 febf 39a2 aebe e973 0340
000002f0: 0dd0 4bbf 1251 8f3f f7b8 a33f 6633 21bf
00000300: ca77 b2bf 7c75 623e 3859 38bf 4352 8fbf
00000310: 3886 323f d55d aebf a4ca f53f 7a9a 113f
00000320: 7c6d 93bd 6ab4 bf3d d79e 703f 1f00 ddbe
00000330: c30e 5b3e 3b92 cbbf 1790 61bf f2a2 aebe
00000340: 7910 83bf b587 ad3f 91ee 2ebe 5474 013e
00000350: 6100 3740 2d5f 98bc ecb4 53bf 6a62 00bf
00000360: 4eb1 703e fab1 203e 60c4 01c0 cf07 0c3f
00000370: e1ec 743f 3e24 ea3e 4560 32bf 02b2 fc3e
00000380: d2f1 323f cf40 bebf bd6a ba3e 6a44 32bd
00000390: a900 aabe 9952 013f c108 593f 8621 b4be
000003a0: 56fd 913e d1a4 c23f dee7 2f3f a25d 423d
000003b0: 6679 26bf b388 cc3e 81d4 38bd 3f6c 43be
000003c0: 1833 c03c 0f27 3d3f caa1 673e f1bb e9bc
000003d0: bb87 903f f1de 403f 859e 1ebe 9941 30bf
000003e0: b986 3cc0 ab1e f7bf de28 6fbf 8cfb 34bf
000003f0: f2f2 a33f e52c 15bf 013c 8abf 5f9f 9a3e

0.bias f4 [2]
-1.5807341 1.595049
00000000: 7f55 cabf 912a cc3f
