optima/checkpoints/snli/scb.pt (torch, 419359 bytes, 3 tensors)

unshared_soft_embeds f4 [100, 1024]
0	0x41de0ff5	27.757792
1	0xc20da4e6	-35.411034
2	0xc14c0679	-12.75158
3	0xc0208c2d	-2.5085557
4	0x414d0fd3	12.816363
5	0xc1cb2a8a	-25.395771
6	0xc1bb0413	-23.37699
7	0x4133c493	11.235492
8	0x416edd49	14.929025
9	0x4147851b	12.469996
10	0xc168c976	-14.549185
11	0x41f468d3	30.551184
12	0xbfc3ce63	-1.5297359
13	0x419fee09	19.991228
14	0xc142f58d	-12.184949
15	0xbf03ef76	-0.51537263
16	0xbdf2aaf4	-0.11849013
17	0x40aaa0d5	5.332133
18	0x4251353e	52.301994
19	0x4131c7b5	11.111257
20	0x4200b849	32.179966
21	0xc20f0049	-35.75028
22	0x40c9e9a5	6.309771
23	0x3fed6efc	1.8549495
24	0x41b0a069	22.078325
25	0x420065f0	32.09955
26	0xc1336e40	-11.2144165
27	0x412dcdd6	10.862753
28	0x41590346	13.563299
29	0xc164e760	-14.306488
30	0x4178d0a7	15.5509405
31	0x4212d66a	36.70939
32	0xc1b6de54	-22.858559
33	0x4111d469	9.114358
34	0x419517b8	18.636581
35	0xc1b172e0	-22.181091
36	0x410113cc	8.067333
37	0xc1291620	-10.567902
38	0xbf40ee66	-0.7536377
39	0xc120acee	-10.042219
40	0x41a2031e	20.251522
41	0x420b1745	34.772724
42	0x417267ba	15.150324
43	0x421a6885	38.60207
44	0xc155061f	-13.313994
45	0xc1cd5d41	-25.670534
46	0x415124d0	13.071487
47	0xc11e29cc	-9.885204
48	0xc16d8869	-14.845803
49	0x4074bdb9	3.8240798
50	0xc198aa0a	-19.083027
51	0xc1f63c3e	-30.779415
52	0xc139ec4b	-11.620189
53	0x4197d6d6	18.9799
54	0x40ffcd83	7.993837
55	0xc18b60f2	-17.422337
56	0x3fc49530	1.5358028
57	0x420b7988	34.868683
58	0xc15b1e84	-13.69495
59	0x41de2ef8	27.772934
60	0x4188d4f4	17.103981
61	0x41843c0c	16.52932
62	0x410be00c	8.742199
63	0xc19be63d	-19.487421
64	0x4204832e	33.128105
65	0xc1f86576	-31.049541
66	0xc108d0b5	-8.550954
67	0x40d0e47c	6.527891
68	0x411fe2bf	9.992858
69	0x41409709	12.036874
70	0x418a5b61	17.294619
71	0x404b028f	3.1720312
72	0x41d34686	26.409435
73	0x4115403d	9.328183
74	0xc1bc7b57	-23.560225
75	0xc1f3793a	-30.434193
76	0xc1c3917d	-24.44604
77	0x423411be	45.017326
78	0x426dc90e	59.446342
79	0x40c7e86e	6.247123
80	0x40e2e9b6	7.091029
81	0xc1a76d9f	-20.928526
82	0xbfd85938	-1.6902227
83	0x4032867e	2.7894588
84	0x418fb09f	17.96124
85	0x40c086b6	6.016444
86	0x40c63bf5	6.194819
87	0xc16a4f62	-14.644381
88	0x410efb27	8.9363165
89	0xc0ddf3b0	-6.935997
90	0xc10bb3b2	-8.731371
91	0xc1aa935d	-21.321955
92	0xc0c2269e	-6.067214
93	0x4196c3f2	18.845676
94	0xc1046caf	-8.276534
95	0x41ca8c61	25.318544
96	0x409559c5	4.667208
97	0x41c47521	24.557192
98	0x4170ec1a	15.057642
99	0x42299314	42.39363
100	0x41f5dc65	30.732615
101	0xc1ad1e6c	-21.639854
102	0x40ead96e	7.3390417
103	0xc14e5722	-12.896273
104	0xc0fc71a1	-7.8888707
105	0xc144a80b	-12.291026
106	0xc1b2ee38	-22.366318
107	0x420bd156	34.95443
108	0xc0f1f2c6	-7.5608854
109	0x421be965	38.977924
110	0xc031f9a7	-2.7808626
111	0xc07a8e2b	-3.9149272
112	0xc07814c5	-3.8762677
113	0xc23350b1	-44.8288
114	0xbfa84811	-1.3146993
115	0x41c354cf	24.41641
116	0xc122899c	-10.158596
117	0xc14a6ac7	-12.651069
118	0xc05d9290	-3.4620705
119	0xbf723502	-0.94612134
120	0xc1d6a37d	-26.829828
121	0xc2152502	-37.28614
122	0xc0f27557	-7.5768237
123	0x41e7ec3d	28.99035
124	0x41f21a4a	30.262836
125	0xc21a4655	-38.568684
126	0x41c9eab5	25.239603
127	0x41030c9d	8.190579
128	0xc1412867	-12.072364
129	0xc1805a37	-16.04405
130	0xc0bf4779	-5.9774747
131	0x3f605d73	0.8764259
132	0x415f9824	13.974644
133	0x416fe354	14.993
134	0x41478d93	12.472064
135	0xc0e1858e	-7.047553
136	0x41254f6a	10.331888
137	0xc10fce64	-8.987888
138	0xc18f91bc	-17.94616
139	0x415b21c1	13.695741
140	0x41c65dd5	24.795816
141	0xbf3e127f	-0.7424697
142	0xc207b680	-33.928223
143	0x3fa5c7b7	1.2951573
144	0x412e73d3	10.903277
145	0xc1fcadcc	-31.584862
146	0x4211811e	36.37609
147	0x420a3ed3	34.56135
148	0x3fc48f75	1.535628
149	0xc15e6209	-13.898934
150	0xc1803596	-16.026165
151	0x42944b59	74.14716
152	0x42176c01	37.855473
153	0xc1e49692	-28.57352
154	0xc1c630a6	-24.773754
155	0x41066107	8.398688
156	0x420a5f24	34.59291
157	0xc1a797b5	-20.949076
158	0x41bf4878	23.910385
159	0x41d70c66	26.881054
160	0x4202824d	32.627247
161	0xc2807118	-64.22089
162	0x41a33d39	20.404894
163	0x41dadd94	27.358192
164	0xc197666d	-18.925013
165	0x4154409f	13.265777
166	0xc1e10100	-28.125488
167	0x40ad2353	5.410562
168	0x419f84cd	19.939844
169	0x41c42308	24.517105
170	0xc182abfa	-16.333973
171	0x404bbf69	3.1835577
172	0xc11fc8e6	-9.986547
173	0x418af7b4	17.370949
174	0x417e4a7f	15.8931875
175	0x40b1dbe9	5.5580945
176	0x42230cd8	40.762543
177	0xc22caf27	-43.171047
178	0x4119ea3e	9.619688
179	0x42368b77	45.636196
180	0x415d948f	13.848769
181	0x41aa7c4b	21.31069
182	0xbec49ea5	-0.38402286
183	0x3f948f07	1.1606148
184	0x41379b2c	11.475384
185	0x408d7b8e	4.4213324
186	0x41d15792	26.167759
187	0xc18961d4	-17.172768
188	0x421486f1	37.13178
189	0x41abdfd9	21.4843
190	0x404c1568	3.1888065
191	0x4165fd83	14.3743925
192	0x3ec98590	0.39359713
193	0x419b348d	19.40066
194	0x3f8841a6	1.0645034
195	0x42143c92	37.05915
196	0x4113c9ad	9.236737
197	0x413fc677	11.985953
198	0xc13d7139	-11.840142
199	0x41c8fa2e	25.122158
200	0x4092e4b1	4.5904164
201	0x420623f5	33.535114
202	0x3fef2dac	1.8685813
203	0xc122fa7b	-10.186152
204	0x422afd38	42.747284
205	0xc22c95ac	-43.146164
206	0xbfbbc625	-1.4669844
207	0xc2687d6f	-58.122494
208	0x419761a2	18.922672
209	0xc03671d6	-2.850698
210	0xc199d770	-19.230194
211	0x4133d3f9	11.239251
212	0x4085e4db	4.1841865
213	0xc0896257	-4.2932544
214	0x411f04da	9.938684
215	0xc1bf5433	-23.916113
216	0xc1a13855	-20.152506
217	0xc18bab05	-17.458506
218	0x41957a69	18.68477
219	0xc0d397de	-6.6122885
220	0xc18790ed	-16.945765
221	0x423b687b	46.85203
222	0xc1bdfc10	-23.748077
223	0xbf5838a9	-0.84461457
224	0xc1897dbb	-17.186392
225	0xc1c218f1	-24.262178
226	0xc1330ddd	-11.190885
227	0xc101a973	-8.103869
228	0xc0a10074	-5.0313053
229	0xc1b99c96	-23.201458
230	0x40dad6bf	6.838714
231	0xc212ded4	-36.717606
232	0x41d76175	26.922586
233	0x3f0f4569	0.55965286
234	0xc190ad12	-18.084507
235	0xc197ab6e	-18.958706
236	0x42033f7c	32.811996
237	0x4031e16f	2.7793844
238	0xc12eccc1	-10.924989
239	0x41d3d3b9	26.47838
240	0x41593332	13.574999
241	0xc083a3b2	-4.1137323
242	0xc144b6a2	-12.294588
243	0xc1b7ee56	-22.991375
244	0x41e75ab4	28.919289
245	0x4014be8c	2.32413
246	0xc2063d58	-33.559906
247	0x420f3590	35.802307
248	0x415bb89d	13.732572
249	0xc1b46f40	-22.554321
250	0x415100c7	13.06269
251	0xc1152bad	-9.323163
252	0x4177c07b	15.484492
253	0xc086b6a9	-4.2097974
254	0x41419b06	12.1003475
255	0xc002f7d7	-2.046377

0.weight f4 [2, 1024]
0	0x3f984bc6	1.1898124
1	0x40342459	2.8147185
2	0xbfbcabc2	-1.4739916
3	0xbea5f5c7	-0.32414076
4	0xbedf972f	-0.4367003
5	0x400e94ed	2.2278397
6	0xbf55e726	-0.8355583
7	0xbe9e229f	-0.3088579
8	0xbf0a2fb3	-0.53979033
9	0xbf044025	-0.51660377
10	0x3ec8aada	0.3919285
11	0xbf94dcc7	-1.1629876
12	0x3c735fd7	0.014854393
13	0x3e913a0e	0.28364605
14	0x3f82421d	1.0176426
15	0x3db80595	0.0898544
16	0xbfd3c905	-1.6545721
17	0x3f623a6d	0.883704
18	0xbef70d9a	-0.48252565
19	0xbfcc1311	-1.5943319
20	0x3fc46c47	1.5345544
21	0x3d19edd7	0.037580337
22	0x3e099d24	0.1343885
23	0x3e90e8df	0.28302667
24	0xc0137b98	-2.3044186
25	0xbfc0ea68	-1.5071535
26	0x3f075189	0.5285879
27	0xbc15d283	-0.009144428
28	0xc0207fe0	-2.5078049
29	0x40a517f7	5.1591754
30	0x3f04953f	0.5179023
31	0x3fbd1522	1.4772074
32	0xc073a099	-3.806677
33	0x3f9c54e6	1.2213409
34	0xbeb5c102	-0.35498816
35	0x4047ef26	3.1239715
36	0xbedf5bff	-0.43624875
37	0x3ec6fd5a	0.38865167
38	0xbe547428	-0.20747435
39	0xbfdcdb85	-1.7254492
40	0xbea31a39	-0.31855944
41	0xbdb1ec7c	-0.08687684
42	0xbd5b50d0	-0.053543866
43	0xbfacad52	-1.3490393
44	0xbee52ea8	-0.44762158
45	0xbb7b44c2	-0.0038340543
46	0x3eaf5906	0.34247607
47	0xbef8eaae	-0.48616546
48	0x4008f96d	2.1402237
49	0xc06e92a9	-3.7277014
50	0xbfb36741	-1.4015886
51	0xbe2ee647	-0.17080031
52	0xbfa0d061	-1.2563592
53	0x3f07fe50	0.53122425
54	0x401ade05	2.419801
55	0x401c3b66	2.4411254
56	0x3e7aa746	0.24477872
57	0x3f382576	0.7193216
58	0x401ce0cf	2.4512212
59	0xbec4585d	-0.38348666
60	0x3fa2bafe	1.2713315
61	0xbfa82b8a	-1.3138287
62	0x3fa5ed4e	1.2963045
63	0x3ec45949	0.3834937
64	0xbf125bcc	-0.5717132
65	0x3f67f0f3	0.90602034
66	0xc003282b	-2.0493267
67	0x3f4734ae	0.7781476
68	0xbe804d7c	-0.25059116
69	0x3f98cc8f	1.1937426
70	0xbfd8592e	-1.6902215
71	0xbf3651cc	-0.7121856
72	0xbe53d26b	-0.20685737
73	0x3ff2cc9c	1.8968692
74	0x403160d8	2.7715359
75	0x3fd7c908	1.6858225
76	0xbfb8cc09	-1.4437267
77	0xbfd35047	-1.6508874
78	0xbfc04117	-1.5019864
79	0x408118d8	4.0342827
80	0x3f929cd1	1.1454107
81	0x3e690faa	0.22759882
82	0xbedadb42	-0.42745405
83	0xbf3dd53a	-0.7415348
84	0x3db59ad0	0.08867419
85	0x3f8cac2d	1.0990044
86	0x3e2a27bf	0.16616724
87	0x402d562f	2.7083852
88	0xbfb37308	-1.401948
89	0xbfb21985	-1.3914038
90	0x3f65e6db	0.8980538
91	0x402aac10	2.6667519
92	0xbdbe9c19	-0.09307117
93	0xc042c2da	-3.0431428
94	0x3fac4d90	1.346117
95	0xbe28bb93	-0.16477804
96	0x3fe37504	1.7770085
97	0xbe67001a	-0.22558632
98	0xbe4c6304	-0.19959646
99	0xc00bed9e	-2.186378
100	0xbf69c615	-0.91317874
101	0xbea7a966	-0.32746428
102	0xbfc0dd1b	-1.5067476
103	0xc021b08e	-2.526401
104	0xbe49bc87	-0.19700824
105	0x3f0ad48a	0.5423056
106	0x3fe11674	1.7584977
107	0x3f7e189a	0.9925629
108	0x4072292a	3.7837625
109	0x3e79f71e	0.24410674
110	0xbda16e4a	-0.07882364
111	0xbef3e268	-0.47633672
112	0x3fc43ed4	1.5331674
113	0xbf02426b	-0.50882596
114	0xbe3ca5b2	-0.18422583
115	0xbfe3556f	-1.7760447
116	0x3e1713a1	0.14753582
117	0x3fdbf92f	1.718542
118	0xbf8b33ee	-1.0875223
119	0x3e0a33aa	0.13496271
120	0x3f829d7b	1.0204309
121	0x405c61a3	3.4434593
122	0x3f010ea5	0.5041297
123	0x3f87e54e	1.0616853
124	0x3f32fce7	0.6991715
125	0x3e6133b9	0.21992387
126	0x40947f1c	4.6405163
127	0xbe2eed65	-0.17082746
128	0x3feef054	1.8667092
129	0xbe512f06	-0.20428094
130	0xbfbad025	-1.4594771
131	0xbb74e57d	-0.003736823
132	0xbfde12ef	-1.7349528
133	0xbfb9e2ac	-1.45223
134	0x3f923330	1.1421871
135	0x3df51068	0.1196602
136	0xbf21d6a0	-0.63218117
137	0xc02db7df	-2.7143476
138	0x40028678	2.0394573
139	0x3e3c1507	0.18367396
140	0x40544615	3.3167775
141	0xbf990de4	-1.1957364
142	0x4012e00f	2.2949255
143	0x3fa8c00e	1.318361
144	0xc02399a2	-2.556252
145	0x3f064451	0.5244799
146	0x3f9f640d	1.2452408
147	0xc01d8d72	-2.4617581
148	0x3ef8de3b	0.48607048
149	0xbf2b31b0	-0.6687269
150	0x3fa2b598	1.2711668
151	0x3dec3c20	0.115349054
152	0xbecc7566	-0.39933318
153	0x3f38e24a	0.7222029
154	0x3f9cd7fd	1.2253414
155	0x3f651c24	0.89496064
156	0x3f6d5e67	0.9272217
157	0xbfb2674a	-1.3937771
158	0x3d56d409	0.052448306
159	0x3f7e10e0	0.992445
160	0xbf08a2bc	-0.5337331
161	0xbfc1eeb6	-1.5150974
162	0x3da78c2b	0.08181032
163	0x3ec87079	0.3914831
164	0x401c7472	2.4446073
165	0xbdb7984b	-0.089645945
166	0x3f34e1cc	0.7065704
167	0xbe699c24	-0.22813469
168	0xc0353493	-2.8313339
169	0xbc8c3af3	-0.017117953
170	0xbe3af58a	-0.18257728
171	0xc005567d	-2.0834038
172	0x3f8f3471	1.1187879
173	0xbe3d8b0b	-0.18510072
174	0x4028717a	2.631926
175	0x3f37b91b	0.71766824
176	0x3e9bc6d6	0.30425137
177	0xbf8cb373	-1.0992264
178	0x3f9a0bad	1.2034813
179	0x3f3719dd	0.7152384
180	0x3f7c6efc	0.9860685
181	0xbfc0e825	-1.5070845
182	0xbdd46e46	-0.103725955
183	0x3fc0dbf1	1.5067121
184	0xbffc31e3	-1.9702724
185	0x3f8f16a8	1.1178789
186	0x3f9a4d1f	1.2054785
187	0xc03f6a71	-2.9908717
188	0x3e3babe3	0.18327288
189	0xbe8d5142	-0.27601057
190	0xbf000d8a	-0.5002066
191	0xbf53b9ae	-0.827052
192	0xbdbf7d27	-0.09350043
193	0x3e33c517	0.17555653
194	0x3e10fe49	0.14159502
195	0x3fb5b306	1.4195259
196	0x3fa4bd46	1.2870262
197	0x3fb8ae60	1.4428215
198	0xbf07078c	-0.5274589
199	0x3f189e54	0.5961659
200	0xbff2d2ed	-1.897062
201	0x3f37b3b8	0.71758604
202	0x3fa68075	1.3007952
203	0x3fe2f71a	1.773166
204	0xbbb11ec9	-0.005405281
205	0x40137bc9	2.3044302
206	0x3f8da52a	1.1066029
207	0xbf2bcf90	-0.6711359
208	0x4033aaa2	2.8072896
209	0xbff82351	-1.9385778
210	0x3f3bd799	0.7337585
211	0x3f012aa1	0.5045567
212	0xbf0e6591	-0.5562373
213	0x4019c897	2.402868
214	0x3f3317e7	0.6995835
215	0x3fe24d11	1.7679769
216	0xbed51866	-0.41620177
217	0x4025043f	2.5783842
218	0x3fd2d878	1.6472311
219	0x3fb1e220	1.3897133
220	0x3e60feb6	0.21972165
221	0xbed30f9a	-0.4122284
222	0xbff0f065	-1.8823363
223	0xbf9689fc	-1.176086
224	0xbf11b8d2	-0.5692264
225	0xbe868cc6	-0.26279277
226	0xc00cb78c	-2.1987028
227	0x3ffb5068	1.9633913
228	0xbf99863e	-1.1994092
229	0xbff57537	-1.9176396
230	0xc00be5c8	-2.1858997
231	0xbfa13b18	-1.2596159
232	0xbf7d5b8f	-0.9896783
233	0xbeade7d6	-0.3396594
234	0x3eed1831	0.4630752
235	0x3f0d5999	0.5521484
236	0xbde5bd05	-0.11217693
237	0xbf1e3b1c	-0.61808944
238	0xc013fac9	-2.3121817
239	0xc02c5269	-2.69253
240	0xbd3d7009	-0.046249423
241	0x3f97abe6	1.1849334
242	0xbfa1f657	-1.2653302
243	0xbd462c53	-0.048382115
244	0xbfa30aa7	-1.2737626
245	0x3f0e15ba	0.555019
246	0x3e894452	0.26809937
247	0x3ff617b1	1.922598
248	0x405a450c	3.4104643
249	0x402fb9b8	2.7457104
250	0x3dfc95d7	0.12333267
251	0xbf847c8a	-1.0350506
252	0xbe8f51d9	-0.27992132
253	0x401cc36f	2.4494283
254	0x3fd35b98	1.6512327
255	0xc0293912	-2.6441083

0.bias f4 [2]
0	0xbf1660a9	-0.5874124
1	0x3f11abff	0.5690307
