optima/checkpoints/snli/ssick.pt (torch, 419359 bytes, 3 tensors)

unshared_soft_embeds f4 [100, 1024]
00000000: 3e45 18c2 c925 d341 ca2e c2c1 0248 60c0
00000010: 73dd 2341 f582 1cc1 66c0 5c40 d30a ea41
00000020: eaf3 42c2 a538 a7c1 7e30 b4c1 2910 f5c1
00000030: 3cf9 5fc1 953b 5e42 14b4 d141 9a39 8e41
00000040: c379 2b41 f71e dac1 8b2f 3042 8b1e e240
00000050: 47aa 9a40 be92 2b42 8a22 6342 90b9 8ac0
00000060: 6970 2dc0 38d2 1fc1 0ce6 c5c1 fa91 8cc2
00000070: 96a5 34c1 b92f b1c1 f415 1840 c429 a3c1
00000080: adbf 8bc0 7d3b 43c1 dfef e4c0 4314 0bc2
00000090: 153b d641 c8c4 c441 9233 ca40 53af 5d42
000000a0: a85e 3f41 52ec 4ec2 5c01 47c1 1f89 dc41
000000b0: 4c32 84c2 b559 25c2 4289 57c2 e120 3342
000000c0: 2389 b941 e4e1 3642 9c10 c840 2711 0042
000000d0: 23d8 1942 3c2e 48c2 2fae 4dc2 4544 3c42
000000e0: eae9 0d41 713c 81c1 970c 1142 7210 3ac1
000000f0: 8e01 d441 fbe6 8742 ab8c 2841 4c69 d4c1
00000100: ae85 68c2 c679 71c2 70a8 31c1 129a 3d41
00000110: 0df8 11c0 c94c 1642 3135 07c2 8713 3441
00000120: 4d41 46c2 0928 6642 8498 6842 cd02 2242
00000130: 9ae7 95be c3d0 dcc1 5359 0f42 e666 16c1
00000140: 8051 acc1 d132 3f40 8adf 0ec2 ae3e 8dc1
00000150: ea21 7e41 a8bb 3241 1dad 7242 073c 8242
00000160: 7749 cac0 f514 7842 ad13 af41 519b cb41
00000170: 5659 30c2 5baf 2342 0910 8bc1 2458 d640
00000180: c5ba 91c2 3684 f2c0 6803 6542 cb43 96c0
00000190: ffd3 a042 8474 c1c1 47d3 d6c1 bfed 9a42
000001a0: 52f5 8441 245a 34c1 597a 0c42 22d2 8042
000001b0: 9a2d 80bf bfef b142 b241 6741 7918 b441
000001c0: 0066 ebc0 2c36 8a41 04ba 94c2 e78b a9bf
000001d0: b7d6 6141 c8fa b6c1 9692 cc41 2c11 72c1
000001e0: 5896 a742 1a01 a6c0 c89b 5341 c0a0 5a40
000001f0: cc65 09c2 cb5a 85c2 8b46 92c0 4261 9141
00000200: 69d2 a3c1 f5be e9c0 c334 7342 6527 b541
00000210: 49fb a540 4784 61c2 edd4 a841 fdb6 25c2
00000220: 8ed1 a841 81ee 5dc1 39d3 5541 8f29 0c42
00000230: 8656 24c2 a2e9 bc41 67f1 c0c1 28d0 b7c2
00000240: 9716 2642 aa1c 3cc2 09c7 9ec1 2f3f 09c1
00000250: ce17 c9bf e1e0 b5c0 faf1 d7c1 5e29 afc1
00000260: 6549 6f42 a8a2 f040 bb2f 1e42 8ba6 f03d
00000270: 2c0b 47c0 4eb9 91c2 7287 4a42 7c2a a8bf
00000280: f421 e940 da7a d7c1 2b05 09c2 aabe 3fc0
00000290: bc34 adc1 fff6 1b42 252c ab41 15f0 b442
000002a0: 437d 6c40 3bb9 b2c2 44bd e0c1 a8a5 14c2
000002b0: 0bf9 d9c0 9850 ee40 33d3 2741 0a61 1bc0
000002c0: c407 d0c1 c8e7 8fc1 ef70 d540 ea98 bcc1
000002d0: b38d 74c2 feb3 9cc1 ba4c 373f b0cd 5c42
000002e0: b554 31c2 a73d a5c1 e6a9 0fc2 07b6 ddc1
000002f0: f9d7 01c2 66bc c43f a88f b941 1a98 60c1
00000300: 2537 b041 c488 5242 d2b6 c7c1 42f1 37c2
00000310: fd9e 6d41 963b 16c1 39a4 60c2 2fea aec1
00000320: cc5b 54c2 b7b8 2842 da8e cbc1 aae9 6040
00000330: b80d c141 681a ca41 805b 3842 9137 4b42
00000340: 5d75 22c2 a6c5 8cc1 6684 ba41 d359 c541
00000350: 65f1 8cc1 f249 2f42 c6b7 20c2 e337 0342
00000360: cbc4 6141 b68d d5c0 b97c 91c1 29a3 dc41
00000370: bb49 9bc1 c643 9940 b345 c3c1 673e da41
00000380: 8685 5a42 68c3 78c2 3fcb 6fc2 8e64 5b42
00000390: 84c8 ec41 a01a 2841 708b 0fc2 3db4 0742
000003a0: 08f4 bdbf e4a6 1541 47df a642 1c44 0c42
000003b0: 2654 02c0 e8fe ce41 adc4 df41 af3c 0b42
000003c0: ed41 abc2 e62e 5d42 40a0 1c42 c619 13c1
000003d0: 4666 8641 ca2b ffc1 3d6f f0bf fcb0 42c2
000003e0: 682a 97c2 fc96 2bc2 6272 12c0 d509 8142
000003f0: 2e73 973d cc6c 14c2 973d 70c2 1e91 4d41
-38.06762 26.39345 -24.272846 -3.504395 10.241565 -9.781972 3.449243 29.255285
-48.738197 -20.902658 -22.523678 -30.63289 -13.998348 55.558186 26.212929 17.778126
10.717227 -27.26512 44.04643 7.0662284 4.833286 42.893303 56.78373 -4.3351517
-2.709986 -9.988823 -24.737328 -70.28511 -11.290426 -22.148302 2.37634 -20.395393
-4.367148 -12.2020235 -7.154281 -34.769787 26.778849 24.596085 6.318795 55.421215
11.960609 -51.73078 -12.437832 27.566954 -66.098236 -41.337605 -53.88404 44.78211
23.191961 45.720596 6.2520275 32.01675 38.46107 -50.04515 -51.4201 47.06667
8.869608 -16.154512 36.262295 -11.629015 26.50076 67.95113 10.534343 -26.551414
-58.130547 -60.36892 -11.103622 11.850115 -2.2807648 37.574986 -33.801945 11.254767
-49.56377 57.539097 58.14894 40.502735 -0.2927826 -27.601934 35.83723 -9.400122
-21.539795 2.9874766 -35.7183 -17.655605 15.88328 11.1708145 60.669056 65.11724
-6.321468 62.020466 21.884607 25.450838 -44.087242 40.921246 -17.38283 6.6982594
-72.864784 -7.578639 57.253326 -4.6957755 80.414055 -24.181892 -26.853163 77.46435
16.619785 -11.272007 35.11948 64.410416 -1.0013916 88.968254 14.453539 22.51195
-7.356201 17.276451 -74.36331 -1.324582 14.114921 -22.872452 25.571575 -15.129192
83.79364 -5.1876345 13.225533 3.4160614 -34.34941 -66.67733 -4.571111 18.17249
-20.47774 -7.30456 60.801525 22.644236 5.1869245 -56.379177 21.103968 -41.4287
21.102322 -13.8707285 13.364068 35.040585 -41.084496 23.614079 -24.117872 -91.906555
41.52206 -47.027992 -19.847185 -8.577926 -1.571039 -5.683701 -26.993153 -21.895199
59.821674 7.5198555 39.54661 0.117505156 -3.1100569 -72.86192 50.63227 -1.3137965
7.2853947 -26.934986 -34.255047 -2.9960122 -21.65075 38.991207 21.396555 90.46891
3.6951454 -89.36178 -28.092415 -37.161774 -6.8116508 7.447338 10.489062 -2.4277978
-26.003792 -17.988174 6.670036 -23.574665 -61.13838 -19.587887 0.7160145 55.200867
-44.33272 -20.655104 -35.915916 -27.71388 -32.46091 1.5369995 23.195145 -14.037134
22.026926 52.63356 -24.964268 -45.985603 14.8513155 -9.389547 -56.160374 -21.864347
-53.089645 42.180386 -25.444752 3.5142617 24.131699 25.262894 46.089355 50.804264
-40.614613 -17.596508 23.314648 24.66886 -17.617868 43.822212 -40.179466 32.804577
14.110545 -6.6735487 -18.1859 27.579668 -19.411001 4.789523 -24.409033 27.28047
54.630394 -62.190826 -59.948483 54.848198 29.597908 10.5065 -35.88617 33.926014
-1.4840097 9.353245 83.43609 35.066513 -2.036386 25.874466 27.971033 34.80926
-85.62876 55.2958 39.156494 -9.193792 16.799938 -31.896381 -1.8783947 -48.672836
-75.582825 -42.897446 -2.2882314 64.5192 0.07395016 -37.106247 -60.060146 12.847929

0.weight f4 [2, 1024]
00000000: 7688 f9bc 1bde 2fbf 1b6e 373f 0f57 c83f
00000010: 4010 f83e 280a 7f3c f0e2 e8be 8e8d 833f
00000020: 8b7f 863e 5ceb aa3f bcc3 a53f 7d06 88be
00000030: a48a 11bf b223 693c 2fe6 fbbd 1f42 163d
00000040: c716 37be 1a92 14bf 080c 81bf 51e0 923d
00000050: f9ab ab3d 3502 93bc 31fb 073e 5268 f13f
00000060: 6d3e f73e 5177 1abe 5f34 11bf 0636 a33e
00000070: c015 0f3f 193e 90bf 1073 893f 16e3 91be
00000080: 5700 a43f 31cd ab3d 9a40 5fbf ddc9 bebe
00000090: e09c cdbe e7e9 24be 841e 733e b8fd 00bf
000000a0: d30d b6bf 3077 c5be ff68 8cbd 9887 6abe
000000b0: 1f77 c53e e006 8ebf 887f bbbc 174e 143f
000000c0: cc52 2dbd d540 0dbf b73f 2bbe 5caa 6a3d
000000d0: 57ea ffbe d84d debf 6d3c 703f ed22 6f3f
000000e0: e016 cb3c 80dc e7be ae79 d9bf 7f90 e23f
000000f0: 0e17 813f c78b 073e 7b30 2c3f 3a29 c83c
00000100: d03c 2d3e 9a12 863e 74aa 253f c8b8 e43e
00000110: 628f b33f 413f ce3d c54f a8be 2dde bd3d
00000120: 10d0 15bf 5a25 b33e eb86 4ebe 42ef 473f
00000130: 1a62 633f 4efb e33f 34d8 233e 432d a43f
00000140: a5a8 863e 3839 893e 4966 37be 3918 3dbe
00000150: 5385 4b3d 8eea 593e a899 f43f 0f70 73be
00000160: 51cb 643f f297 973d 4e33 a43e de7c bebe
00000170: 4fda 353f f852 83bf a967 3bbf 20fc 5fbf
00000180: 9b5f 96bf 21d5 4f3d e221 7dbe a1c3 9cbf
00000190: 0169 243e 0f4a 9ebe 44de 523f 14b8 18bf
000001a0: bcbc cf3c 85c2 0bbf b641 a33e 55dc 623f
000001b0: f02f 2f40 ec79 14bd babc eb3d 7569 263d
000001c0: c32c 71bf c72c 9a3e ea2f 4d3e 0eab febe
000001d0: 4809 903e 706a ad3e d8c3 8d3f f379 ba3e
000001e0: bef0 2abf 830c 383e 5c19 323e 77f1 79bd
000001f0: 38d5 05be a9d4 bcbf 2569 cd3e 93b6 963f
00000200: a7bb b83b 77fc 28be 06c2 bd3f e8ff 1dbe
00000210: c03c 47bf a678 8e3f 0e5e 043f 4e60 cf3f
00000220: c1dd adbe 4873 8abe 5ed3 bcbe cb3c 1e3f
00000230: d5db c93f f755 463e a9fe 0a3f a7c8 55bf
00000240: fe19 8dbf bc6a 01bd e1c8 c83d 32ff 75bf
00000250: edaa 14be 3c34 a63f aca8 3a3f 59b5 88bf
00000260: 414b dd3d d310 8cbe 211e 9fbf c606 5f3f
00000270: 98cf 8d3e 7d35 d93d 12a9 823b bd6d 6e3e
00000280: cdf0 1fbf b49a acbe 3bf9 07be 406b 63bd
00000290: f37e bf3e 4996 77bf 8de1 183d cc9e 443f
000002a0: a0d3 253f 02d4 423f 67cb 6c3e b46f 1ebf
000002b0: d24a 43bf fbe7 c23d ee8a 01be 7cb9 b33e
000002c0: 4360 2f3f 87b9 a13e 9ea1 86be ad4e be3d
000002d0: 26a3 3e3f d814 35be 5910 1cbf a687 ff3e
000002e0: 607d 493f 545c d4bf 5828 ec3e 3bba 91bf
000002f0: 381c 0a3c 8025 1e3f 57b2 2dbe 6812 d6be
00000300: 5b81 81bf 7ad1 40be 0c6a 22be 745b a63e
00000310: bc8a 993d 9ad5 4a3f 9d2f 41bd 8875 113e
00000320: 9fe3 52bf 510d 873d 4db7 cd3d 62d1 6ebe
00000330: f38b 00bf 8079 a93e be8e e53b 97a6 f73e
00000340: 36c5 cfbe 8cea 2c3e d8f4 43bf 453c 94be
00000350: 9da8 8bbe 7f8b c8bb 56e5 b9be a458 07bf
00000360: 2e38 9bbe 0126 d0bd b60e 81be ee55 67bc
00000370: f1b8 95bf 7ddc 0abf 2acd 953f 0172 0abf
00000380: 2e89 443e 0182 03bf aa13 50be 0ec5 52bf
00000390: ea04 403f f369 91bf 8e1b 9ebd b72b 3d3f
000003a0: 500b 333f f133 803f 179d ef3e 04c2 aa3f
000003b0: f149 2e3f b4d4 cabd 5d63 fcbf 285d 2cbf
000003c0: 24e2 80be f469 b9bd e23a f5bd 4342 49bf
000003d0: 2c36 5a3f 938c 703f eb6a 513f c88f cc3e
000003e0: ba43 66bf 1b71 513d 9cb6 533f d9fe 27bf
000003f0: f2b1 05be c564 913f cbd6 bb3e f020 cebf
-0.030460577 -0.6869828 0.7165238 1.5651568 0.48449898 0.015566386 -0.4548564 1.0277574
0.26269183 1.3353076 1.2950358 -0.2656745 -0.56852174 0.014229702 -0.122997634 0.03668415
-0.17879783 -0.58035433 -1.0081797 0.07171691 0.083824106 -0.017945388 0.13279416 1.8859961
0.48289815 -0.15084578 -0.56720537 0.31877154 0.5589256 -1.1268951 1.0738239 -0.28493565
1.2812604 0.083887465 -0.8720795 -0.37263384 -0.4015875 -0.16104852 0.2374211 -0.50387144
-1.4222969 -0.38567495 -0.06855964 -0.22903287 0.38567445 -1.1095848 -0.02288796 0.57931656
-0.04231529 -0.5517705 -0.16723524 0.057291374 -0.49983475 -1.7367506 0.938422 0.9341267
0.024791181 -0.45285416 -1.6990259 1.7700347 1.0085161 0.13236915 0.67261475 0.02443372
0.1691773 0.26186067 0.64713216 0.44672227 1.4028132 0.100706585 -0.3287336 0.09270892
-0.58520603 0.34989434 -0.20168655 0.78099453 0.88821566 1.7811067 0.16000444 1.2826313
0.2630054 0.26801467 -0.17910112 -0.18466271 0.049687695 0.21280882 1.9109392 -0.23773216
0.89372736 0.07402028 0.32070392 -0.3720464 0.7103624 -1.0259695 -0.7320505 -0.8749409
-1.1747926 0.050740365 -0.24719957 -1.2247201 0.16055681 -0.30915877 0.823704 -0.5965588
0.02535855 -0.5459369 0.3188607 0.8861745 2.7373009 -0.036249086 0.11510606 0.040627915
-0.94208926 0.30112287 0.20037809 -0.4973988 0.2813208 0.33870268 1.1075392 0.36421165
-0.66773593 0.17973523 0.17392486 -0.061021294 -0.13069618 -1.4752399 0.4011928 1.1774467
0.0056376043 -0.16502558 1.4824836 -0.15429652 -0.7782707 1.1130569 0.51706016 1.6201265
-0.33958247 -0.27041078 -0.3688001 0.6181151 1.5770212 0.1936873 0.5429483 -0.83509296
-1.1023557 -0.03159593 0.098039396 -0.9609252 -0.14518328 1.2984691 0.7291362 -1.0680343
0.10805369 -0.27356586 -1.243107 0.8711971 0.27697444 0.10605905 0.00398744 0.2328405
-0.6247681 -0.3371178 -0.13278668 -0.055522203 0.37401542 -0.9671369 0.037324477 0.76804805
0.6477604 0.7610475 0.23124467 -0.61889195 -0.7628604 0.09516903 -0.12650654 0.3510245
0.6850626 0.3158686 -0.2629518 0.0929235 0.74467695 -0.17683733 -0.60962445 0.4990818
0.7870693 -1.6590676 0.4612453 -1.1384958 0.008429579 0.6177597 -0.16962563 -0.41810918
-1.0117601 -0.18829909 -0.15860766 0.32491648 0.074971646 0.7923218 -0.04716455 0.14204991
-0.8237857 0.06594337 0.100447275 -0.2332206 -0.50213546 0.3310051 0.0070055416 0.48369285
-0.40580148 0.16886348 -0.76545477 -0.28952232 -0.2727708 -0.006120145 -0.36307782 -0.5286963
-0.303163 -0.10163499 -0.25206536 -0.014119608 -1.1697065 -0.5424269 1.1703236 -0.54080206
0.19192955 -0.51370245 -0.20320001 -0.8233193 0.750075 -1.1360458 -0.077200994 0.7389483
0.69939137 1.0015851 0.46799538 1.3340459 0.68081576 -0.09903851 -1.9717823 -0.67329645
-0.25172532 -0.09053412 -0.11974122 -0.7861673 0.8523891 0.939645 0.8180377 0.39953446
-0.8994709 0.051133256 0.82700515 -0.6562324 -0.13056162 1.1358877 0.36687312 -1.6103802

0.bias f4 [2]
00000000: 2e47 c7bf 6117 c13f
-1.5568597 1.508526
